thermal/vt_prediction_lstm_model_caiman.tflite (tflite, 15579 bytes, 12 tensors)

arith.constant5 f4 [6, 10]
0	0x3ec319d3	0.3810564
1	0xbf11a8a1	-0.5689793
2	0xbd9dca3d	-0.077045895
3	0x3eb482ee	0.3525614
4	0x3f29307e	0.6608962
5	0x3ede2922	0.43390757
6	0xbeb807f8	-0.3594358
7	0x3eb58081	0.35449603
8	0xbe83723f	-0.256731
9	0x3e74a25a	0.23890057
10	0x3ecb930f	0.39760634
11	0xbee6f334	-0.45107424
12	0x3d032970	0.03202194
13	0x3eb2f9f3	0.3495632
14	0x3f2c2f5f	0.6725978
15	0x3edf64f9	0.43631724
16	0xbec2408d	-0.37939873
17	0x3ecef5c8	0.4042189
18	0xbed00483	-0.40628442
19	0x3e6a5fb1	0.22888066
20	0x3ed377e2	0.413024
21	0xbeb2aa44	-0.34895527
22	0x3e067091	0.13128878
23	0x3eb110d9	0.34583166
24	0x3f2ed51e	0.6829394
25	0x3ee0a8b4	0.4387871
26	0xbecc2157	-0.39869186
27	0x3ee5d49f	0.4488878
28	0xbf0a840a	-0.54107726
29	0x3e6134ed	0.21992846
30	0x3eda8b23	0.42684278
31	0xbe8605d2	-0.26176316
32	0x3e61c588	0.22048008
33	0x3eaeeb43	0.34163865
34	0x3f30e23f	0.69095224
35	0x3ee162b5	0.4402062
36	0xbed5f685	-0.41789642
37	0x3efafbca	0.49020225
38	0xbf29156e	-0.66048324
39	0x3e598f38	0.2124604
40	0x3ee13c87	0.4399149
41	0xbe3e870e	-0.18606207
42	0x3e99f6ca	0.30071098
43	0x3eac8c9c	0.33701026
44	0x3f32a2b0	0.6977949
45	0x3ee21795	0.44158617
46	0xbede9893	-0.4347578
47	0x3f074200	0.52835083
48	0xbf4440cc	-0.7666137
49	0x3e526d39	0.20549478
50	0x3ee733d1	0.4515672
51	0xbdf647ae	-0.120253906
52	0x3ebf0e86	0.37315768
53	0x3ea9b8aa	0.331487
54	0x3f340b7b	0.7033002
55	0x3ee2c4ce	0.44290775
56	0xbee8e933	-0.45490417
57	0x3f0fabbf	0.5612144
58	0xbf5cb4ad	-0.8621319
59	0x3e4c0c69	0.19926609

arith.constant6 f4 [10, 10]
0	0x3f27afc8	0.65502596
1	0xbffd8f10	-1.9809284
2	0x3f125d3b	0.5717351
3	0xbc469ab8	-0.012121849
4	0xc012747f	-2.2883604
5	0xbf64c8bf	-0.89368814
6	0xbe9a4cf7	-0.30136845
7	0xbebf619b	-0.37379155
8	0x3d2582d3	0.040407967
9	0xc0249239	-2.5714247
10	0x3f91f674	1.1403337
11	0x3fc74919	1.5569183
12	0x3e119be7	0.14219628
13	0xbf68711a	-0.9079758
14	0xbfa82133	-1.3135132
15	0x3e2a00da	0.16601887
16	0x3f8f99d5	1.1218821
17	0xc00c7207	-2.1944597
18	0x4072c696	3.7933707
19	0x3f9103f0	1.1329327
20	0x3fabb72d	1.3415276
21	0x3e19afa7	0.15008412
22	0x3f053b11	0.52043253
23	0xbf343c19	-0.704042
24	0x40c72b96	6.2240705
25	0x4091f848	4.561558
26	0x3ec107aa	0.3770116
27	0xc0846694	-4.1375217
28	0xbfe5e4a7	-1.7960404
29	0x3fa07639	1.2536079
30	0x4036b4d6	2.8547873
31	0xbf999abc	-1.2000346
32	0xbe1baac2	-0.15201858
33	0x3efa6417	0.48904487
34	0xbe85ca9c	-0.2613114
35	0x3ea12eeb	0.31481108
36	0x3e4f619c	0.20252079
37	0xc09ea9c7	-4.958225
38	0xc03c8e5e	-2.9461894
39	0xbfb6d98d	-1.4285141
40	0xbf857ced	-1.0428749
41	0x3d9b8f93	0.07595744
42	0xbfc7be90	-1.560503
43	0xbdd88027	-0.10571318
44	0xbf24c88d	-0.64368516
45	0x3eeb9f86	0.46020144
46	0x3fcd3de7	1.6034516
47	0x3ecdb511	0.40177205
48	0x408aea4f	4.341102
49	0x3ffee529	1.9913684
50	0xbed5480c	-0.4165653
51	0xc0bb2ea4	-5.8494434
52	0x3e15f191	0.14642932
53	0xbf85b958	-1.0447187
54	0x3f736dc1	0.95089346
55	0x3ea5629a	0.3230179
56	0x3f8cc4ba	1.0997536
57	0x3f0be75e	0.54649913
58	0xbf5cd765	-0.86266166
59	0x3ff69671	1.9264661
60	0x3f6b0332	0.9180175
61	0xbfe58471	-1.7931043
62	0xbef995e2	-0.48747164
63	0xbfa1651a	-1.2608979
64	0x3fd6c0de	1.6777608
65	0xbe1c3d57	-0.15257774
66	0xbfe5f1e4	-1.7964444
67	0x4043899b	3.0552738
68	0xc0369433	-2.8527954
69	0x3d433b0c	0.047663733
70	0x3febc407	1.8419198
71	0x400d7f95	2.210912
72	0x3d356d43	0.044293653
73	0xbe381d40	-0.17979908
74	0xc02e48ba	-2.7231889
75	0x403cd0af	2.950237
76	0xbff54eaf	-1.9164637
77	0xc098c68e	-4.7742376
78	0xc0435aa5	-3.0524075
79	0x3d16f4e6	0.036854647
80	0x3faaebed	1.3353249
81	0x400f39ce	2.237903
82	0x3f66a503	0.9009554
83	0xbecc21c4	-0.3986951
84	0x404d5ac8	3.2086658
85	0x40632ede	3.5497355
86	0x3f8af01a	1.0854523
87	0x40e7a822	7.239274
88	0x40360748	2.8441944
89	0x3f564388	0.83696795
90	0x3eb2af8b	0.34899554
91	0x3ef47920	0.4774866
92	0xbf30748f	-0.68927854
93	0x3e64be5c	0.22338241
94	0x40151173	2.32919
95	0x408b807f	4.3594356
96	0x3fa41a12	1.2820456
97	0xc02175f3	-2.522824
98	0xc0a99bce	-5.300269
99	0x4093c77a	4.6181

arith.constant7 f4 [88]
0	0x3b427397	0.0029670948
1	0x3b427397	0.0029670948
2	0x3b427397	0.0029670948
3	0x3b427397	0.0029670948
4	0x3b427397	0.0029670948
5	0x3b427397	0.0029670948
6	0x3b427397	0.0029670948
7	0x3b427397	0.0029670948
8	0x3b427397	0.0029670948
9	0x3b427397	0.0029670948
10	0x3b427397	0.0029670948
11	0x3b34a3b5	0.0027563397
12	0x3b34a3b5	0.0027563397
13	0x3b34a3b5	0.0027563397
14	0x3b34a3b5	0.0027563397
15	0x3b34a3b5	0.0027563397
16	0x3b34a3b5	0.0027563397
17	0x3b34a3b5	0.0027563397
18	0x3b34a3b5	0.0027563397
19	0x3b34a3b5	0.0027563397
20	0x3b34a3b5	0.0027563397
21	0x3b34a3b5	0.0027563397
22	0x3b1e3a16	0.0024143509
23	0x3b1e3a16	0.0024143509
24	0x3b1e3a16	0.0024143509
25	0x3b1e3a16	0.0024143509
26	0x3b1e3a16	0.0024143509
27	0x3b1e3a16	0.0024143509
28	0x3b1e3a16	0.0024143509
29	0x3b1e3a16	0.0024143509
30	0x3b1e3a16	0.0024143509
31	0x3b1e3a16	0.0024143509
32	0x3b1e3a16	0.0024143509
33	0x3b77556b	0.0037740122
34	0x3b77556b	0.0037740122
35	0x3b77556b	0.0037740122
36	0x3b77556b	0.0037740122
37	0x3b77556b	0.0037740122
38	0x3b77556b	0.0037740122
39	0x3b77556b	0.0037740122
40	0x3b77556b	0.0037740122
41	0x3b77556b	0.0037740122
42	0x3b77556b	0.0037740122
43	0x3b77556b	0.0037740122
44	0x3b421c9a	0.0029619099
45	0x3b421c9a	0.0029619099
46	0x3b421c9a	0.0029619099
47	0x3b421c9a	0.0029619099
48	0x3b421c9a	0.0029619099
49	0x3b421c9a	0.0029619099
50	0x3b421c9a	0.0029619099
51	0x3b421c9a	0.0029619099
52	0x3b421c9a	0.0029619099
53	0x3b421c9a	0.0029619099
54	0x3b421c9a	0.0029619099
55	0x3b842108	0.004032258
56	0x3b842108	0.004032258
57	0x3b842108	0.004032258
58	0x3b842108	0.004032258
59	0x3b842108	0.004032258
60	0x3b842108	0.004032258
61	0x3b842108	0.004032258
62	0x3b842108	0.004032258
63	0x3b842108	0.004032258
64	0x3b842108	0.004032258
65	0x3b842108	0.004032258
66	0x3b15701c	0.0022802418
67	0x3b15701c	0.0022802418
68	0x3b15701c	0.0022802418
69	0x3b15701c	0.0022802418
70	0x3b15701c	0.0022802418
71	0x3b15701c	0.0022802418
72	0x3b15701c	0.0022802418
73	0x3b15701c	0.0022802418
74	0x3b15701c	0.0022802418
75	0x3b15701c	0.0022802418
76	0x3b15701c	0.0022802418
77	0x3b81ec68	0.0039649494
78	0x3b81ec68	0.0039649494
79	0x3b81ec68	0.0039649494
80	0x3b81ec68	0.0039649494
81	0x3b81ec68	0.0039649494
82	0x3b81ec68	0.0039649494
83	0x3b81ec68	0.0039649494
84	0x3b81ec68	0.0039649494
85	0x3b81ec68	0.0039649494
86	0x3b81ec68	0.0039649494
87	0x3b81ec68	0.0039649494

arith.constant8 f4 [10]
0	0xbf01eb76	-0.5074991
1	0xc0aaeb57	-5.341228
2	0x40e4e974	7.1534977
3	0xc02e9d87	-2.7283647
4	0x406200ac	3.531291
5	0xc0796e81	-3.8973696
6	0xc1398283	-11.594363
7	0x3f901d3d	1.1258923
8	0xc035db0b	-2.8414943
9	0xc0a71073	-5.220758

arith.constant9 f4 [6]
0	0xc01b04bb	-2.4221637
1	0xc02e732b	-2.7257793
2	0xc03e9ed3	-2.9784439
3	0xc04b6715	-3.1781666
4	0xc054d1d0	-3.325306
5	0xc05ba2ac	-3.4318037

arith.constant10 f4 [6]
0	0x46c49a00	25165.0
1	0x46c49a00	25165.0
2	0x46c49a00	25165.0
3	0x46c49a00	25165.0
4	0x46c49a00	25165.0
5	0x46c49a00	25165.0

arith.constant11 f4 [88]
0	0x46c8f400	25722.0
1	0x46c8f400	25722.0
2	0x46c8f400	25722.0
3	0x46c8f400	25722.0
4	0x46c8f400	25722.0
5	0x46c8f400	25722.0
6	0x46c8f400	25722.0
7	0x46c8f400	25722.0
8	0x46c8f400	25722.0
9	0x46c8f400	25722.0
10	0x46c8f400	25722.0
11	0x46cdb600	26331.0
12	0x46cdb600	26331.0
13	0x46cdb600	26331.0
14	0x46cdb600	26331.0
15	0x46cdb600	26331.0
16	0x46cdb600	26331.0
17	0x46cdb600	26331.0
18	0x46cdb600	26331.0
19	0x46cdb600	26331.0
20	0x46cdb600	26331.0
21	0x46cdb600	26331.0
22	0x46ce7000	26424.0
23	0x46ce7000	26424.0
24	0x46ce7000	26424.0
25	0x46ce7000	26424.0
26	0x46ce7000	26424.0
27	0x46ce7000	26424.0
28	0x46ce7000	26424.0
29	0x46ce7000	26424.0
30	0x46ce7000	26424.0
31	0x46ce7000	26424.0
32	0x46ce7000	26424.0
33	0x46c80a00	25605.0
34	0x46c80a00	25605.0
35	0x46c80a00	25605.0
36	0x46c80a00	25605.0
37	0x46c80a00	25605.0
38	0x46c80a00	25605.0
39	0x46c80a00	25605.0
40	0x46c80a00	25605.0
41	0x46c80a00	25605.0
42	0x46c80a00	25605.0
43	0x46c80a00	25605.0
44	0x46cc6e00	26167.0
45	0x46cc6e00	26167.0
46	0x46cc6e00	26167.0
47	0x46cc6e00	26167.0
48	0x46cc6e00	26167.0
49	0x46cc6e00	26167.0
50	0x46cc6e00	26167.0
51	0x46cc6e00	26167.0
52	0x46cc6e00	26167.0
53	0x46cc6e00	26167.0
54	0x46cc6e00	26167.0
55	0x46c8f400	25722.0
56	0x46c8f400	25722.0
57	0x46c8f400	25722.0
58	0x46c8f400	25722.0
59	0x46c8f400	25722.0
60	0x46c8f400	25722.0
61	0x46c8f400	25722.0
62	0x46c8f400	25722.0
63	0x46c8f400	25722.0
64	0x46c8f400	25722.0
65	0x46c8f400	25722.0
66	0x46ca6a00	25909.0
67	0x46ca6a00	25909.0
68	0x46ca6a00	25909.0
69	0x46ca6a00	25909.0
70	0x46ca6a00	25909.0
71	0x46ca6a00	25909.0
72	0x46ca6a00	25909.0
73	0x46ca6a00	25909.0
74	0x46ca6a00	25909.0
75	0x46ca6a00	25909.0
76	0x46ca6a00	25909.0
77	0x46c7da00	25581.0
78	0x46c7da00	25581.0
79	0x46c7da00	25581.0
80	0x46c7da00	25581.0
81	0x46c7da00	25581.0
82	0x46c7da00	25581.0
83	0x46c7da00	25581.0
84	0x46c7da00	25581.0
85	0x46c7da00	25581.0
86	0x46c7da00	25581.0
87	0x46c7da00	25581.0

arith.constant12 f4 [1, 10]
0	0x00000000	0.0
1	0x00000000	0.0
2	0x00000000	0.0
3	0x00000000	0.0
4	0x00000000	0.0
5	0x00000000	0.0
6	0x00000000	0.0
7	0x00000000	0.0
8	0x00000000	0.0
9	0x00000000	0.0

sequential/lstm/TensorArrayV2_1 f4 [1, 1, 10]
0	0x00000000	0.0
1	0x00000000	0.0
2	0x00000000	0.0
3	0x00000000	0.0
4	0x00000000	0.0
5	0x00000000	0.0
6	0x00000000	0.0
7	0x00000000	0.0
8	0x00000000	0.0
9	0x00000000	0.0

arith.constant17 f4 [40, 8]
0	0x40306f52	2.7567945
1	0x3c824868	0.015903667
2	0xbe83f823	-0.2577525
3	0x403894a8	2.8840733
4	0x3e15e599	0.14638366
5	0x3ee2b7c5	0.4428083
6	0x3f25325e	0.6452998
7	0x3ff8b685	1.94307
8	0x3e052d24	0.13005501
9	0x3dea7e2d	0.11449847
10	0x3d85656d	0.06513486
11	0x3f1c9b84	0.611748
12	0xbea749cf	-0.326735
13	0x3f0a8b28	0.54118586
14	0x4041dfb8	3.0292797
15	0x3f824f93	1.0180534
16	0xbfbf2d49	-1.4935695
17	0x3eee5090	0.4654584
18	0x3fb58513	1.4181236
19	0xbf4fca58	-0.8116813
20	0xbe44dc0c	-0.19224566
21	0x3fa33ea6	1.2753494
22	0xbe36fdc2	-0.17870238
23	0x3babb07c	0.0052395444
24	0x3f4d755f	0.8025722
25	0xbd35a828	-0.04434982
26	0x3f1e04e8	0.61726236
27	0x3ff7391c	1.9314303
28	0xbf76d218	-0.9641433
29	0x3e1e9056	0.15484747
30	0xbea689f6	-0.3252713
31	0xbfa275b9	-1.2692176
32	0x3fc70119	1.554721
33	0x3e461bdc	0.19346565
34	0xbf9c9845	-1.2233969
35	0x3f633d0f	0.88765043
36	0xbe40ce30	-0.18828654
37	0x3fa5b9bc	1.2947307
38	0xc0001b55	-2.0016682
39	0x3fae77f8	1.3630362
40	0x3f1553b4	0.58330846
41	0x3f9794c2	1.1842272
42	0xbf2371b7	-0.6384539
43	0xbfbd7c44	-1.4803548
44	0xbd29b320	-0.041430593
45	0xbffe3669	-1.9860355
46	0xbfb8d1c6	-1.4439018
47	0xc00193cc	-2.0246458
48	0x4008c25a	2.1368623
49	0xbff803a0	-1.9376106
50	0xbd611030	-0.05494708
51	0xbdf81ef1	-0.121152766
52	0x3e4693a6	0.19392261
53	0x3d8a4351	0.06751121
54	0xbf005418	-0.50128317
55	0x3e08a479	0.13343991
56	0xbe094c8e	-0.1340811
57	0x3dcd7bd4	0.10033384
58	0x3e0f50c3	0.13995652
59	0xc00d66d9	-2.2094023
60	0xbe8f3396	-0.27969044
61	0x3f4d10bc	0.8010366
62	0xbfaa5041	-1.3305742
63	0xbf5d2af8	-0.8639369
64	0x3fcc086d	1.5940071
65	0x3ea496b1	0.32146218
66	0x3e150534	0.14552766
67	0xbf657c44	-0.8964274
68	0xbed3c521	-0.41361335
69	0xc0086c54	-2.1316118
70	0xbf8e7330	-1.1128902
71	0xbeef0472	-0.4668308
72	0x3e43d66f	0.19124769
73	0xbe7f4ef2	-0.24932459
74	0x3d810fe1	0.06301857
75	0x3fb0da05	1.3816534
76	0xbd8fff68	-0.07031137
77	0x3f9c0c98	1.2191343
78	0x3f17fa2c	0.59366107
79	0x3fa62dcb	1.2982725
80	0xbffab49a	-1.9586365
81	0x3f57d63c	0.8431127
82	0xbec32604	-0.3811494
83	0x3fe228ec	1.7668738
84	0x3ca957f0	0.020671815
85	0x3ff04fc0	1.8774338
86	0xbfed2949	-1.8528224
87	0xbf136eff	-0.5759124
88	0xc07b4636	-3.9261603
89	0x3fb2d309	1.3970653
90	0xbfafcf1c	-1.373508
91	0xc04b671b	-3.178168
92	0x3ef9af49	0.48766544
93	0xc03925e3	-2.8929374
94	0xbf03b5de	-0.5144938
95	0xc02c0fa5	-2.6884549
96	0xbfd61a58	-1.672679
97	0x3fb4c1dd	1.4121662
98	0x3fb0996f	1.3796824
99	0x3f2b7e2e	0.6698941
100	0x3fdda56e	1.731611
101	0x3d955023	0.072906755
102	0x3f0f64fb	0.5601346
103	0x3f21e763	0.63243693
104	0xbf9424ce	-1.1573732
105	0x3f872971	1.0559522
106	0x3fe8208c	1.8134933
107	0x3f72934c	0.9475601
108	0x3f42f251	0.76150995
109	0x40a23ff4	5.070307
110	0x3e7fb7ed	0.24972506
111	0x40970b1d	4.7201066
112	0xbfb19a35	-1.3875185
113	0xbf245de2	-0.64205754
114	0xbe8e7e91	-0.27830938
115	0xc014fbdf	-2.327873
116	0xbe58d9e4	-0.21176869
117	0xc03b6357	-2.9279382
118	0xc0173fbc	-2.363265
119	0xbffddc7f	-1.9832915
120	0x3f2ca748	0.6744275
121	0xbf144569	-0.5791841
122	0x3f3ba191	0.73293406
123	0xbfaa33c9	-1.3297054
124	0x3f289d76	0.65865266
125	0xbfb31a97	-1.399249
126	0x402e1be5	2.7204525
127	0xbfb914c2	-1.445946
128	0xbe89267d	-0.26787177
129	0xbf596eae	-0.8493451
130	0x3ed44ed0	0.4146638
131	0x3f29dd54	0.66353345
132	0xbfda3c38	-1.7049627
133	0xc0046c5d	-2.069114
134	0x3fe63cc2	1.7987292
135	0xbf177282	-0.591591
136	0xbfaa194d	-1.3288971
137	0x3e85e91a	0.26154405
138	0x3edeac66	0.43490905
139	0xbfe098d1	-1.7546636
140	0xbeea855b	-0.45804867
141	0x40cc5580	6.385437
142	0xbfc1a6e7	-1.512906
143	0x4001c057	2.0273645
144	0x3f94fd80	1.1639862
145	0x3e96f3f6	0.29483002
146	0xc00da396	-2.2131095
147	0x3f9a650d	1.2062088
148	0xbec93284	-0.39296353
149	0x3fdcfb3f	1.7264174
150	0x3efdda53	0.4958063
151	0x3fa88665	1.3166014
152	0x3f196f28	0.59935236
153	0x40032bfe	2.04956
154	0xbeb8b068	-0.36072087
155	0x40226897	2.5376337
156	0x3fea70fc	1.831573
157	0x406e87db	3.727042
158	0xbeb0c14a	-0.34522468
159	0x403387f4	2.805173
160	0x3dd802b6	0.10547392
161	0xbe921038	-0.28528
162	0x3deaec51	0.11470855
163	0xbf0296a6	-0.5101112
164	0x3f6a7fbc	0.9160116
165	0x3ed3a0fc	0.4133376
166	0x3e837eb6	0.2568261
167	0x3ef63d85	0.4809381
168	0xc048475d	-3.1293557
169	0x3f86453a	1.0489876
170	0xbf23af93	-0.6393978
171	0x3fd67b1c	1.675632
172	0x3e085846	0.13314924
173	0xc01144c1	-2.2698214
174	0xbfadb434	-1.3570619
175	0xc014bf50	-2.3241768
176	0x3f846906	1.0344551
177	0xbffe2fa6	-1.9858291
178	0xbf020a73	-0.50797194
179	0x3e19fa38	0.15036857
180	0xbe9f05b5	-0.31059042
181	0xbf3df000	-0.74194336
182	0x3e8bc5b3	0.2729927
183	0xbe47b688	-0.19503224
184	0x3c17015f	0.0092166355
185	0xbe5cd58b	-0.21565835
186	0x3e33517a	0.1751155
187	0x3dfaed2a	0.12252267
188	0xbdf39243	-0.118931316
189	0x3f7ee081	0.99561316
190	0x3d8d6eef	0.069059245
191	0xbf1200b8	-0.57032347
192	0xbf7788b6	-0.9669298
193	0xbfe5814d	-1.7930084
194	0xbf587176	-0.8454813
195	0x3f1d6209	0.61477715
196	0xbf2f0f10	-0.6838236
197	0xbfea0618	-1.828311
198	0x40062105	2.0957654
199	0x40117fc6	2.2734237
200	0x3f48a537	0.783771
201	0xbff69824	-1.926518
202	0xbdaa4b06	-0.08315091
203	0x4017618f	2.3653295
204	0xc04e3cfd	-3.2224724
205	0x3dba4df3	0.09096899
206	0x3d93b1c0	0.072116375
207	0x3e436811	0.19082667
208	0x3f06cc66	0.5265564
209	0xbe8af888	-0.2714274
210	0xbe9cc460	-0.30618572
211	0x3d91cd75	0.07119266
212	0xbf27c0cc	-0.6552856
213	0xbf947ad8	-1.1599989
214	0x3feff82c	1.8747611
215	0xbeca7d06	-0.3954851
216	0xbf85f29c	-1.0464664
217	0xbfc06946	-1.5032127
218	0xbe4a442b	-0.19752567
219	0x40146509	2.3186667
220	0xbfa07b40	-1.2537613
221	0xc0909d22	-4.5191813
222	0x403b5bfb	2.927489
223	0x3f27a8f1	0.6549216
224	0xbfe4dde4	-1.7880216
225	0xbfa3aa5a	-1.2786362
226	0xbf1ea337	-0.61967796
227	0x40130b80	2.297577
228	0xbfc62c1f	-1.5482215
229	0x40292539	2.642897
230	0xc0159c27	-2.3376558
231	0x3f199607	0.5999455
232	0xbf2bf5eb	-0.67172116
233	0x3f12d0c1	0.57349783
234	0x3eb9472d	0.36187115
235	0xbc9365de	-0.01799291
236	0xc0116d77	-2.2723062
237	0xbf2118fc	-0.6292875
238	0xbdfe268a	-0.124096945
239	0x40016e53	2.0223587
240	0x3e5598dc	0.20859092
241	0x3fd21270	1.6411877
242	0x3f8b2ce7	1.0873078
243	0x3ea8fb09	0.33004025
244	0xbfe992d0	-1.8247929
245	0x3efb9299	0.49135283
246	0x3ead488e	0.33844417
247	0x3f113ea3	0.567362
248	0xbfc37a2f	-1.5271662
249	0xc0004e2b	-2.004771
250	0x3fd276e8	1.6442537
251	0xbf077bf3	-0.52923506
252	0x3f1d6428	0.6148095
253	0x3dfd7153	0.123751305
254	0x3f997249	1.1988002
255	0x3eaa1778	0.3322103

arith.constant18 f4 [40, 10]
0	0xc0488567	-3.1331422
1	0xc039d8da	-2.9038606
2	0x3f3ae250	0.73001575
3	0x3fbe7c00	1.4881592
4	0x3f47d51c	0.78059554
5	0xbff00847	-1.8752526
6	0x3e0b892e	0.13626549
7	0x40867445	4.201693
8	0x403f10cf	2.985401
9	0xbfc8de17	-1.5692776
10	0xbf8b27de	-1.0871542
11	0xc01a7bb4	-2.4138002
12	0xbf6d6b09	-0.9274145
13	0xbef09a6d	-0.46992818
14	0x409535a8	4.6628
15	0x3fe8cbd2	1.8187201
16	0xc00f1ed9	-2.2362578
17	0xbdd750ef	-0.10513484
18	0x402580c8	2.5859852
19	0xbfe6138a	-1.7974713
20	0x3f53fac9	0.8280454
21	0xbfdd0d62	-1.7269709
22	0x3f9f4306	1.2442329
23	0xbf1293fc	-0.57257056
24	0xc0885ab5	-4.2610726
25	0x400042c4	2.004075
26	0x3ea24028	0.31689572
27	0x3f1320a4	0.5747168
28	0x3eea2f6f	0.45739314
29	0x3ed73079	0.4202917
30	0x3fa73d26	1.3065536
31	0x3f940555	1.1564127
32	0x40d9f70e	6.811408
33	0xc0270025	-2.6093838
34	0xbf7f5e22	-0.9975301
35	0xc02f148b	-2.7356288
36	0xbfec4d8b	-1.8461164
37	0xc01e7698	-2.4759884
38	0x40b2b107	5.58411
39	0xbebeb19a	-0.37244874
40	0x3c1c2c65	0.009532069
41	0x40ac8c82	5.392152
42	0xbf7eb27d	-0.994911
43	0xbf7dc6ee	-0.9913167
44	0x403d2d12	2.9558759
45	0xbfc4dce5	-1.5379912
46	0x3f6b33de	0.9187602
47	0x3d45434e	0.04815989
48	0x4067cbda	3.621817
49	0xbf55ec3b	-0.83563584
50	0x3fb6ed2b	1.4291128
51	0xc0c6c807	-6.2119174
52	0xc04bf3ff	-3.1867673
53	0x3f96e30d	1.178804
54	0xc08db4f8	-4.428341
55	0x402929d5	2.6431782
56	0x3f089b6d	0.5336216
57	0x3fe68649	1.800973
58	0x4091844f	4.547401
59	0xc033afee	-2.807613
60	0xbec1666c	-0.37773454
61	0x401359e9	2.3023627
62	0xc006e2b9	-2.107588
63	0xbf1511d9	-0.5823036
64	0x3f92d3a0	1.1470833
65	0x403b9ff8	2.9316387
66	0xbf746b8f	-0.9547662
67	0x3fb2abd4	1.3958688
68	0x3f008fca	0.50219405
69	0xc035f6ca	-2.8431878
70	0xbf3c1a8f	-0.73478025
71	0xc0807cd4	-4.015238
72	0x3f6855ad	0.9075573
73	0x3fc3eb70	1.5306225
74	0xbfd8e11b	-1.6943697
75	0xc03a98f0	-2.9155846
76	0x40af3223	5.47487
77	0x40215801	2.5209963
78	0x3db1d92a	0.08683999
79	0xc0625376	-3.536344
80	0x3e973421	0.2953196
81	0xc0c0658d	-6.0123963
82	0x3fc3e558	1.5304365
83	0x3ed3055a	0.4121502
84	0xc0fe4da1	-7.946976
85	0x3f469166	0.7756561
86	0x408e18b0	4.4405136
87	0x40a36598	5.1061516
88	0x4011169e	2.2670054
89	0xc0b6c931	-5.7120595
90	0x3fa3b186	1.2788551
91	0xc002ccc1	-2.0437472
92	0xbd5f144d	-0.05446272
93	0x3f7ccd17	0.9875044
94	0x3f8be27c	1.0928493
95	0xc00e36a6	-2.2220855
96	0xbf845978	-1.0339804
97	0x40a55e0a	5.1677294
98	0x3d35e31f	0.044406053
99	0xbf948168	-1.1601992
100	0xbf1a5c9c	-0.6029756
101	0xc0889a6c	-4.2688503
102	0xbdcff271	-0.10153664
103	0xbe5ed330	-0.21760249
104	0x3f5ef5f6	0.87094057
105	0x41038590	8.220108
106	0xc0ac68f3	-5.387811
107	0xbf4c0f91	-0.7971125
108	0x3e8aeef8	0.27135444
109	0xbf80dd85	-1.0067602
110	0xc0e645d8	-7.196026
111	0x40ae8497	5.4536853
112	0x4082a899	4.083081
113	0xbf0298ab	-0.510142
114	0xbfa864ab	-1.3155721
115	0x3eba3280	0.36366653
116	0xbfccfc21	-1.6014444
117	0xc08dbd53	-4.429361
118	0x3ed9dcbd	0.42551222
119	0xc07844f3	-3.8792083
120	0x40b01c97	5.50349
121	0xbf37c2b1	-0.7178145
122	0x3f8bf8c0	1.0935287
123	0x3e919fcc	0.28442228
124	0xbf69a017	-0.912599
125	0x3ea42d9d	0.3206605
126	0x3f100eae	0.562724
127	0xc1067aca	-8.404978
128	0x3fce6581	1.6124727
129	0xbf878189	-1.0586406
130	0x405bc97f	3.4341733
131	0xbfba0be5	-1.453488
132	0x3ff18350	1.8868198
133	0x3fe1ffd7	1.7656201
134	0xbd9b20c5	-0.0757461
135	0x40446b01	3.069031
136	0x40f5b4b4	7.6783085
137	0xc08e81c3	-4.45334
138	0x40869485	4.20563
139	0x4062d085	3.543977
140	0xbed3fc5c	-0.41403472
141	0xc0840374	-4.1254215
142	0xc01f1aab	-2.4860027
143	0x3f4abb57	0.7919211
144	0x40849805	4.143557
145	0xc04ca849	-3.1977713
146	0xbe0cd350	-0.13752484
147	0xc02e0836	-2.7192512
148	0x40186971	2.3814356
149	0x4023420d	2.5509064
150	0xbfba1dbc	-1.4540324
151	0x40d56cb2	6.6695185
152	0xbef81ef4	-0.48461115
153	0x3fc4ec0f	1.5384539
154	0xc1612c3c	-14.073299
155	0xbffedf1a	-1.9911835
156	0x40298639	2.6488173
157	0xc1371925	-11.443639
158	0xbe260873	-0.1621416
159	0x3fadeb91	1.3587514
160	0xbe15a4de	-0.14613673
161	0xbf491d18	-0.7856002
162	0x4002f3e8	2.0461369
163	0x3fdafc50	1.710825
164	0xbebe6938	-0.3718965
165	0x403e7538	2.9759045
166	0xc014434e	-2.316608
167	0x403c4f11	2.9423258
168	0x3f83b7f1	1.029051
169	0x3f8a1e27	1.0790452
170	0xbfec149f	-1.8443793
171	0xc04899ee	-3.1343951
172	0xc064d0af	-3.575237
173	0x40885bab	4.26119
174	0x4032742b	2.7883403
175	0xc0154527	-2.3323457
176	0x3faf2b2a	1.3685048
177	0x3f9b4848	1.2131433
178	0x40308595	2.7581532
179	0x40065e8c	2.0995207
180	0x4024dd55	2.576009
181	0x40c42423	6.129411
182	0xbea122d0	-0.31471872
183	0xbde11b7c	-0.1099157
184	0xc041bfc6	-3.02733
185	0xbef91f1d	-0.4865655
186	0x40559fcd	3.3378785
187	0xc0700c4a	-3.75075
188	0xc03f03e9	-2.9846137
189	0xbfa78d28	-1.3089952
190	0xbfeeea82	-1.8665316
191	0x403c15f1	2.9388392
192	0x3f68dee4	0.90965104
193	0xbe6c0a2a	-0.23050752
194	0xc1863950	-16.777985
195	0x4087b423	4.2407393
196	0xbf3a55c9	-0.7278715
197	0x40ad0305	5.4066186
198	0x3fee9eea	1.8642247
199	0xc02345c8	-2.551134
200	0xbf69b204	-0.91287255
201	0xbea6d5a4	-0.3258487
202	0x3fcf3a00	1.6189575
203	0xbfcd7392	-1.6050894
204	0xbf3a8e4a	-0.72873366
205	0x3f69b457	0.912908
206	0xbe8b4aea	-0.27205592
207	0x3e9616d1	0.29314283
208	0xbf621297	-0.88309616
209	0x3c876dde	0.016531881
210	0x3eec919e	0.46204847
211	0xc125f29b	-10.37173
212	0xbef963ec	-0.48709047
213	0x3fb78c10	1.4339619
214	0xc0412135	-3.0176518
215	0x3e97dfc8	0.2966292
216	0xbf960b4e	-1.17222
217	0xbfbd460d	-1.4787003
218	0xbfb8d8c5	-1.4441153
219	0x40026bd9	2.0378325
220	0x3e4e3348	0.2013675
221	0xc03180c2	-2.7734838
222	0xc05b9696	-3.431066
223	0x3f40b099	0.75269467
224	0x3f2e6ecf	0.6813783
225	0xc0af7033	-5.482446
226	0x3da9feb0	0.08300531
227	0x409ee260	4.9651337
228	0x4024d3dd	2.575431
229	0xbf07affa	-0.53002894
230	0x3f03b813	0.5145275
231	0xbde90da4	-0.11379555
232	0x3fa32756	1.2746379
233	0xbfea51cb	-1.8306211
234	0xbf8bf065	-1.0932738
235	0xc03df72c	-2.9682112
236	0xbe1bdd2f	-0.15221094
237	0x3fc9d0a9	1.5766803
238	0x3f69098d	0.910302
239	0x3e3f6c0f	0.18693565
240	0xbf8fccee	-1.1234415
241	0xc00771dd	-2.1163247
242	0xbf8d6ae3	-1.1048244
243	0x3e0e1954	0.1387685
244	0x3f871fd5	1.0556589
245	0x4032d0cf	2.7939947
246	0xbf033340	-0.51250076
247	0x40b44e14	5.634531
248	0xc1634188	-14.203499
249	0xc01e4a06	-2.473268
250	0x3e99734d	0.2997078
251	0xc0262f0d	-2.5966218
252	0x40486b16	3.131536
253	0x400efc5c	2.2341528
254	0x4046b577	3.1048257
255	0xc179203c	-15.57037

sequential/lstm/while/lstm_cell/BiasAdd/ReadVariableOp f4 [40]
0	0xbf86d6ae	-1.0534265
1	0xc0819974	-4.049982
2	0xc0acd051	-5.4004292
3	0x40e0c336	7.0238295
4	0xbf1b9f3d	-0.60789853
5	0xc04d15a9	-3.204447
6	0x40fd6311	7.918343
7	0x3f64c266	0.8935913
8	0x3f95b01f	1.1694373
9	0xc0282407	-2.627199
10	0x4004263f	2.0648344
11	0x40e2f4eb	7.092397
12	0xbe8421fd	-0.2580718
13	0xbf3d38bf	-0.7391471
14	0xbde6c603	-0.112682365
15	0x400ba563	2.1819694
16	0x4031ec34	2.7800417
17	0x3f623f48	0.8837781
18	0x40863693	4.194162
19	0x40be15df	5.94017
20	0xc04e748a	-3.225863
21	0x40082f78	2.1278973
22	0xc04741e7	-3.1133974
23	0x3dd2da01	0.10295487
24	0xc16c2e20	-14.761261
25	0x4089c494	4.3052464
26	0x40a8fb06	5.2806425
27	0xc09d5dda	-4.9177065
28	0xc071aae7	-3.776056
29	0x40094ebf	2.1454313
30	0xc108fb59	-8.561364
31	0x3fbfa0c9	1.4970943
32	0xbf11e6aa	-0.5699259
33	0x3fe087ed	1.7541481
34	0x406eeede	3.7333293
35	0x4104bd5a	8.296228
36	0x3ec5b678	0.38615775
37	0xbf6a49c5	-0.91518813
38	0x405c36ce	3.440845
39	0x3f0e0c7b	0.55487794
