thermal/vt_prediction_lstm_model_komodo.tflite (tflite, 15751 bytes, 12 tensors)

arith.constant5 f4 [6, 10]
000000 27 bd 9e bf 70 9e 2a bf 7b dc 3b 3f c4 33 f0 be
       -1.2401475 -0.66648006 0.733833 -0.46914494
000010 93 68 18 3f f6 31 af 3e 73 43 f0 3d 08 8f ed 3e
       0.5953457 0.34217805 0.11731615 0.46398187
000020 b6 09 7a 3f 65 2f 2e 3f 47 e2 a8 bf 93 7d 26 bf
       0.9767107 0.6804107 -1.3194054 -0.6503536
000030 14 8a 35 3f 30 7f 37 bf 84 e3 cb 3e 54 d6 ab 3e
       0.70913815 -0.7167845 0.39822018 0.33561957
000040 33 88 42 3e b6 f6 f3 3e f8 50 77 3f 5c b5 31 3f
       0.18997268 0.47649163 0.96607924 0.6941736
000050 8e 45 b2 bf 2c 6d 23 bf 77 9d 2f 3f b6 68 6e bf
       -1.3927476 -0.6383846 0.6859965 -0.93128526
000060 b4 71 65 3e a3 9d a8 3e 6b 9c 81 3e 8e d6 f9 3e
       0.22406656 0.32932767 0.2531465 0.48796505
000070 0c 87 75 3f 79 fe 34 3f 92 8c ba bf a8 25 21 bf
       0.9590919 0.70700794 -1.4574149 -0.62948084
000080 e7 48 2a 3f 28 33 8e bf d8 0b 9b 3d 44 bc a5 3e
       0.6651749 -1.1109362 0.075706184 0.32370198
000090 40 71 9d 3e 5c f1 fe 3e e4 5c 74 3f a6 f1 37 3f
       0.30750465 0.49793518 0.9545424 0.718531
0000a0 2c a7 c1 bf 3f e4 1f bf 3c 93 25 3f e0 d5 a0 bf
       -1.5129142 -0.6245765 0.64677787 -1.256527
0000b0 52 1d 42 bd 19 d9 a2 3e c0 d5 b4 3e cc 92 01 3f
       -0.047391243 0.31806257 0.35319328 0.5061462
0000c0 44 bb 73 3f 24 4a 3a 3f 73 e3 c7 bf 3e f7 1e bf
       0.9520762 0.7276938 -1.5616287 -0.6209601
0000d0 50 34 21 3f 06 92 b0 bf 9f 13 1c be 59 82 9f 3e
       0.6297045 -1.3794563 -0.1524186 0.31154135
0000e0 c9 f7 c8 3e bf 64 03 3f 24 e0 73 3f 57 71 3c 3f
       0.39251545 0.513256 0.95263886 0.7361044

arith.constant6 f4 [10, 10]
000000 c7 a1 54 40 c9 52 b3 3d ab ad 18 be b4 31 2c 40
       3.322374 0.087560244 -0.14909999 2.6905336
000010 cb d3 d0 bf 76 77 de 3f 4e 84 f2 bf fd b4 56 3e
       -1.6314634 1.7380207 -1.8946626 0.20967479
000020 47 0b 24 40 8b 9c 52 c0 83 ad 52 40 92 fd bb bc
       2.5631883 -3.2908046 3.2918403 -0.02294806
000030 cc be 9d be ef 93 5f bf ad 85 71 3f 40 89 32 3f
       -0.3080963 -0.87335104 0.943446 0.69740677
000040 4f 73 d4 3f 0b a0 27 40 c2 d7 94 3e 76 29 a0 3f
       1.6597689 2.6191432 0.2907086 1.2512653
000050 e3 0f 80 bf d3 11 a4 3e c3 d3 85 bd 78 e9 0a c0
       -1.0004848 0.3204485 -0.06534531 -2.1704998
000060 0e b4 7f bf a9 18 8a bf f5 91 2f c0 42 24 1f 3f
       -0.99884117 -1.0788776 -2.7432835 0.621647
000070 b3 64 c4 40 b9 72 53 bf 49 87 29 40 a0 f8 d0 3f
       6.1372924 -0.8259693 2.6488822 1.6325874
000080 c1 59 0c 3f c2 b7 c7 bf 62 7b b2 bf 54 05 30 bd
       0.54824454 -1.5602953 -1.3943903 -0.04297383
000090 8e 94 c9 be b2 60 7e bf 94 39 c1 bf 5a ef 0c 3f
       -0.3937115 -0.99366295 -1.5095696 0.5505272
0000a0 f8 ac cc bf 78 2d 01 bf 23 68 b7 bd 3c 99 6c 3e
       -1.5990286 -0.50460005 -0.089554094 0.2310533
0000b0 c6 05 f6 3e d1 61 50 bd cd b8 f3 3e 28 a2 fa 3d
       0.4805128 -0.050874535 0.4760193 0.1223796
0000c0 60 bb ae 3e 2d 22 dd be 7d 2f 39 c0 37 67 d7 be
       0.3412733 -0.43190137 -2.8935235 -0.42070934
0000d0 56 ad 89 bf 09 a5 b1 3f 9f c1 08 3e 08 2d 9e 3f
       -1.0756023 1.387849 0.1335511 1.2357492
0000e0 8d c8 2c 3f 81 c1 e5 3f 57 6a 90 3f f6 a1 80 be
       0.67493516 1.7949678 1.1282452 -0.25123566
0000f0 e4 3a bf bf d3 1c fe 3e 42 cb ca 3e 3e 28 1a bf
       -1.4939847 0.49631366 0.39608198 -0.60217655
000100 48 c9 14 3f cb 54 87 3e c1 8b c3 3e 5b 18 81 bf
       0.5811963 0.2643188 0.3819256 -1.0085558
000110 28 59 b8 3f f0 2c cc bf 9d 58 1c c0 19 62 7f bf
       1.4402208 -1.5951214 -2.4429085 -0.9975906
000120 dc 79 cb 3e e1 82 c4 bd c9 c4 3e bf ab db fa bf
       0.3974141 -0.09595276 -0.7451902 -1.9598287
000130 c7 d6 16 bf f3 11 d5 3f f9 b8 c2 3e e6 4f 53 3f
       -0.58921474 1.6646103 0.38031748 0.8254379
000140 d5 af 7a bf d5 85 c9 3e 69 83 bf be 0c f1 9e 40
       -0.9792455 0.39359918 -0.37404945 4.9669247
000150 82 69 46 3c ce ba e6 3f 91 3d 70 3f 78 aa a6 bf
       0.012110116 1.8025758 0.9384394 -1.3020773
000160 fa 2a cc 3f 32 75 8b c0 f2 33 04 c0 bc 6a a0 bd
       1.5950615 -4.358056 -2.0656705 -0.07832858
000170 08 3a a4 be b7 0d 9e be 3d 78 76 3f 20 e9 59 40
       -0.32075524 -0.3086984 0.9627722 3.4048538
000180 23 76 a9 3f 90 b1 cc bf 34 58 00 40 28 7e a8 3f
       1.3239177 -1.5991688 2.0053835 1.31635

arith.constant7 f4 [88]
000000 a4 cd 4d 3b a4 cd 4d 3b a4 cd 4d 3b a4 cd 4d 3b
       0.003140309 0.003140309 0.003140309 0.003140309
000010 a4 cd 4d 3b a4 cd 4d 3b a4 cd 4d 3b a4 cd 4d 3b
       0.003140309 0.003140309 0.003140309 0.003140309
000020 a4 cd 4d 3b a4 cd 4d 3b a4 cd 4d 3b b0 02 2c 3b
       0.003140309 0.003140309 0.003140309 0.002624672
000030 b0 02 2c 3b b0 02 2c 3b b0 02 2c 3b b0 02 2c 3b
       0.002624672 0.002624672 0.002624672 0.002624672
000040 b0 02 2c 3b b0 02 2c 3b b0 02 2c 3b b0 02 2c 3b
       0.002624672 0.002624672 0.002624672 0.002624672
000050 b0 02 2c 3b b0 02 2c 3b 6c 2d 2e 3b 6c 2d 2e 3b
       0.002624672 0.002624672 0.0026577367 0.0026577367
000060 6c 2d 2e 3b 6c 2d 2e 3b 6c 2d 2e 3b 6c 2d 2e 3b
       0.0026577367 0.0026577367 0.0026577367 0.0026577367
000070 6c 2d 2e 3b 6c 2d 2e 3b 6c 2d 2e 3b 6c 2d 2e 3b
       0.0026577367 0.0026577367 0.0026577367 0.0026577367
000080 6c 2d 2e 3b a0 1b 9d 3b a0 1b 9d 3b a0 1b 9d 3b
       0.0026577367 0.004794553 0.004794553 0.004794553
000090 a0 1b 9d 3b a0 1b 9d 3b a0 1b 9d 3b a0 1b 9d 3b
       0.004794553 0.004794553 0.004794553 0.004794553
0000a0 a0 1b 9d 3b a0 1b 9d 3b a0 1b 9d 3b a0 1b 9d 3b
       0.004794553 0.004794553 0.004794553 0.004794553
0000b0 ff 89 7a 3b ff 89 7a 3b ff 89 7a 3b ff 89 7a 3b
       0.0038229225 0.0038229225 0.0038229225 0.0038229225
0000c0 ff 89 7a 3b ff 89 7a 3b ff 89 7a 3b ff 89 7a 3b
       0.0038229225 0.0038229225 0.0038229225 0.0038229225
0000d0 ff 89 7a 3b ff 89 7a 3b ff 89 7a 3b 04 e8 9f 3b
       0.0038229225 0.0038229225 0.0038229225 0.0048799533
0000e0 04 e8 9f 3b 04 e8 9f 3b 04 e8 9f 3b 04 e8 9f 3b
       0.0048799533 0.0048799533 0.0048799533 0.0048799533
0000f0 04 e8 9f 3b 04 e8 9f 3b 04 e8 9f 3b 04 e8 9f 3b
       0.0048799533 0.0048799533 0.0048799533 0.0048799533
000100 04 e8 9f 3b 04 e8 9f 3b 04 5e 47 3b 04 5e 47 3b
       0.0048799533 0.0048799533 0.0030421028 0.0030421028
000110 04 5e 47 3b 04 5e 47 3b 04 5e 47 3b 04 5e 47 3b
       0.0030421028 0.0030421028 0.0030421028 0.0030421028
000120 04 5e 47 3b 04 5e 47 3b 04 5e 47 3b 04 5e 47 3b
       0.0030421028 0.0030421028 0.0030421028 0.0030421028
000130 04 5e 47 3b 4f 2e 9b 3b 4f 2e 9b 3b 4f 2e 9b 3b
       0.0030421028 0.004735745 0.004735745 0.004735745
000140 4f 2e 9b 3b 4f 2e 9b 3b 4f 2e 9b 3b 4f 2e 9b 3b
       0.004735745 0.004735745 0.004735745 0.004735745
000150 4f 2e 9b 3b 4f 2e 9b 3b 4f 2e 9b 3b 4f 2e 9b 3b
       0.004735745 0.004735745 0.004735745 0.004735745

arith.constant8 f4 [6]
000000 26 1e fd 3e 86 9e 49 3f b8 50 8e 3f c8 b1 b9 3f
       0.49437064 0.7875751 1.1118383 1.450738
000010 ca c1 e6 3f 12 90 0a 40
       1.802789 2.1650434

arith.constant9 f4 [10]
000000 3a aa 0f 41 85 11 da bf 04 aa af 40 50 0b 7c bf
       8.979059 -1.7036597 5.489504 -0.9845476
000010 b8 52 9d bf 66 62 be 3f ac 3c a0 3f e9 b6 ba bf
       -1.2290869 1.4873779 1.2518516 -1.458707
000020 62 a5 f2 40 0f cd 99 40
       7.5826883 4.8062816

arith.constant10 f4 [6]
000000 9a 0c be 46 9a 0c be 46 9a 0c be 46 9a 0c be 46
       24326.3 24326.3 24326.3 24326.3
000010 9a 0c be 46 9a 0c be 46
       24326.3 24326.3

arith.constant11 f4 [88]
000000 00 b2 bc 46 00 b2 bc 46 00 b2 bc 46 00 b2 bc 46
       24153.0 24153.0 24153.0 24153.0
000010 00 b2 bc 46 00 b2 bc 46 00 b2 bc 46 00 b2 bc 46
       24153.0 24153.0 24153.0 24153.0
000020 00 b2 bc 46 00 b2 bc 46 00 b2 bc 46 00 86 be 46
       24153.0 24153.0 24153.0 24387.0
000030 00 86 be 46 00 86 be 46 00 86 be 46 00 86 be 46
       24387.0 24387.0 24387.0 24387.0
000040 00 86 be 46 00 86 be 46 00 86 be 46 00 86 be 46
       24387.0 24387.0 24387.0 24387.0
000050 00 86 be 46 00 86 be 46 00 44 c1 46 00 44 c1 46
       24387.0 24387.0 24738.0 24738.0
000060 00 44 c1 46 00 44 c1 46 00 44 c1 46 00 44 c1 46
       24738.0 24738.0 24738.0 24738.0
000070 00 44 c1 46 00 44 c1 46 00 44 c1 46 00 44 c1 46
       24738.0 24738.0 24738.0 24738.0
000080 00 44 c1 46 00 6a bb 46 00 6a bb 46 00 6a bb 46
       24738.0 23989.0 23989.0 23989.0
000090 00 6a bb 46 00 6a bb 46 00 6a bb 46 00 6a bb 46
       23989.0 23989.0 23989.0 23989.0
0000a0 00 6a bb 46 00 6a bb 46 00 6a bb 46 00 6a bb 46
       23989.0 23989.0 23989.0 23989.0
0000b0 00 58 be 46 00 58 be 46 00 58 be 46 00 58 be 46
       24364.0 24364.0 24364.0 24364.0
0000c0 00 58 be 46 00 58 be 46 00 58 be 46 00 58 be 46
       24364.0 24364.0 24364.0 24364.0
0000d0 00 58 be 46 00 58 be 46 00 58 be 46 00 0c bb 46
       24364.0 24364.0 24364.0 23942.0
0000e0 00 0c bb 46 00 0c bb 46 00 0c bb 46 00 0c bb 46
       23942.0 23942.0 23942.0 23942.0
0000f0 00 0c bb 46 00 0c bb 46 00 0c bb 46 00 0c bb 46
       23942.0 23942.0 23942.0 23942.0
000100 00 0c bb 46 00 0c bb 46 00 fc bf 46 00 fc bf 46
       23942.0 23942.0 24574.0 24574.0
000110 00 fc bf 46 00 fc bf 46 00 fc bf 46 00 fc bf 46
       24574.0 24574.0 24574.0 24574.0
000120 00 fc bf 46 00 fc bf 46 00 fc bf 46 00 fc bf 46
       24574.0 24574.0 24574.0 24574.0
000130 00 fc bf 46 00 da b8 46 00 da b8 46 00 da b8 46
       24574.0 23661.0 23661.0 23661.0
000140 00 da b8 46 00 da b8 46 00 da b8 46 00 da b8 46
       23661.0 23661.0 23661.0 23661.0
000150 00 da b8 46 00 da b8 46 00 da b8 46 00 da b8 46
       23661.0 23661.0 23661.0 23661.0

arith.constant12 f4 [1, 10]
000000 00 00 00 00 00 00 00 00 00 00 00 00 00 00 00 00
       0.0 0.0 0.0 0.0
000010 00 00 00 00 00 00 00 00 00 00 00 00 00 00 00 00
       0.0 0.0 0.0 0.0
000020 00 00 00 00 00 00 00 00
       0.0 0.0

sequential_1/lstm_1/TensorArrayV2_1 f4 [1, 1, 10]
000000 00 00 00 00 00 00 00 00 00 00 00 00 00 00 00 00
       0.0 0.0 0.0 0.0
000010 00 00 00 00 00 00 00 00 00 00 00 00 00 00 00 00
       0.0 0.0 0.0 0.0
000020 00 00 00 00 00 00 00 00
       0.0 0.0

arith.constant17 f4 [40, 8]
000000 d6 7f 03 3f f8 e5 13 c0 19 62 e0 be a3 e5 a5 3f
       0.5136694 -2.3109112 -0.43824843 1.2960705
000010 ff 3d 53 3e cb 1e 5b bd 5d 8a 1b 3f 54 8e 1e be
       0.20629118 -0.053496163 0.60758 -0.15483981
000020 7c 79 1a 40 d0 a1 ae 3f f7 f6 a3 3f 86 d4 5d bb
       2.4136648 1.3643131 1.2809743 -0.0033848598
000030 f2 6e ad 3f 04 d0 20 bf d3 73 cf 3f ab d4 85 bf
       1.3549483 -0.62817407 1.6207222 -1.0455526
000040 27 b8 b2 bd 3e 7c 53 3f aa 0f 9a be 07 90 20 c0
       -0.087265305 0.82611454 -0.30090076 -2.5087907
000050 10 4f a8 3e 6a c7 0c 3f 7b 15 ac be b7 d5 87 3f
       0.3287282 0.5499178 -0.33610138 1.0612096
000060 56 8d 09 3f 98 5e fa 3e 93 7b 10 be 68 cb 44 bf
       0.53731287 0.48900294 -0.1410964 -0.76872873
000070 a4 73 9a bf 88 c9 0a 40 44 7d 71 bf 05 94 68 be
       -1.2066541 2.1685505 -0.94331765 -0.22712715
000080 4e 41 36 be 41 fb 55 3f b9 fe 53 40 4e 83 ad 3f
       -0.1779835 0.8358651 3.312422 1.3555696
000090 63 6e d4 3f e6 07 93 bc 45 62 26 40 d7 d0 b8 bf
       1.6596187 -0.017948102 2.599748 -1.4438733
0000a0 88 4a 73 3f e0 3b dc bc 45 d9 36 3f 3b 95 fd 3e
       0.950356 -0.02688402 0.71425277 0.49527916
0000b0 99 06 ab bf ed 76 5c 3e 4d 19 5a 3f fa 65 2e 3f
       -1.3361388 0.21529742 0.85194856 0.68124354
0000c0 bd 43 87 3e 33 ec 98 3f c4 3d b6 3f 9a fc 25 3f
       0.26418868 1.1947082 1.4237599 0.64838564
0000d0 98 c2 a0 3f 0e a3 ef 3e 07 66 b0 3e 7b 7b 7c 3e
       1.2559385 0.46804088 0.3445284 0.24656479
0000e0 8d 0e fa 3f b0 0f 41 3f 3a 31 a5 3f e3 04 ed 3e
       1.953569 0.7541456 1.2905648 0.4629279
0000f0 b7 17 24 3f 33 57 51 bf 86 87 26 40 57 72 83 bf
       0.64098686 -0.8177368 2.6020217 -1.0269269
000100 23 2f c7 3f cb 02 c1 be e4 cf 38 3f 52 3c 52 3f
       1.556126 -0.37697443 0.72192216 0.8212329
000110 d9 eb ee 3e 3e 30 02 3f 2b c5 04 c0 9a d2 33 bf
       0.46664312 0.5085486 -2.0745342 -0.7024323
000120 00 24 40 40 56 56 cd 3f 6b 85 80 3f 37 a2 a8 3e
       3.0021973 1.6041973 1.0040716 0.3293626
000130 09 a1 23 3f 39 84 6f 3f a1 7a 3c 3f 7f e9 6e 3f
       0.63917595 0.9356113 0.73624617 0.93325037
000140 97 a2 b2 bf f1 e2 44 3f 93 02 f9 3e ef aa ab bf
       -1.3955868 0.76908785 0.48634776 -1.341154
000150 db 0f fc 3e 44 31 d2 bf 45 04 14 bf f3 9a c7 bf
       0.49230847 -1.6421285 -0.57819015 -1.5594162
000160 83 ec 11 40 3f 9c a7 3f 10 42 72 3f 50 09 89 be
       2.2800605 1.3094558 0.94632053 -0.26764917
000170 de 62 80 3f 70 6d 73 bf 94 fa 3b 3f d1 5b b3 3e
       1.0030172 -0.95088863 0.73429227 0.35030988
000180 67 ff 7b 3f ed ff 8b 3e 28 40 e8 be 1c f7 fd be
       0.9843659 0.27343693 -0.45361447 -0.49602592
000190 ab b0 92 bd 19 41 ca 3e 67 29 10 3f d2 c5 09 3c
       -0.07162603 0.3950279 0.56313175 0.00840898
0001a0 0c 70 74 bf 1f d3 6e 3f ae bb 02 3f 93 14 74 3f
       -0.9548347 0.93290895 0.51067626 0.95343894
0001b0 e8 57 06 bf 24 a0 8b 3f 4e af f8 be d4 06 93 3f
       -0.52477884 1.0908246 -0.48571247 1.1486459
0001c0 eb 4b 92 bf 7b d8 1a c0 4b a8 f8 bf 88 95 a2 bf
       -1.1429418 -2.419463 -1.9426359 -1.2701883
0001d0 2b 25 3d c0 80 38 d8 3e de b5 bb bf 6c 7c a3 bd
       -2.9553936 0.42230606 -1.4664876 -0.07982716
0001e0 8b ed 25 c0 cc ab 18 3e 1a 59 3c 3d 2f 76 05 40
       -2.5926235 0.14909285 0.04598341 2.0853384
0001f0 4a 6e d6 3f 5d 7e 9e bf 6b ad ab 3e b9 4d 23 3f
       1.6752408 -1.2382313 0.33530745 0.6379047
000200 9d 6a da be 66 22 6f bf c7 3a 23 be 26 e5 d3 bf
       -0.42659464 -0.9341186 -0.1594039 -1.6554306
000210 68 dc e7 be d7 f4 50 bf 8d f9 d3 be 9e f1 08 c0
       -0.45285344 -0.81623596 -0.4140133 -2.1397471
000220 42 05 bf be 8e 97 2b 3e c6 35 32 bf 06 0e ff 3e
       -0.373087 0.16757032 -0.696133 0.49815387
000230 54 73 1d bf bc d0 73 be 94 0f 76 bc bf 75 b5 3d
       -0.615041 -0.23810095 -0.015018363 0.08860349
000240 32 fd 62 3f 71 d9 e5 3d e1 48 a3 bf 23 1f a7 be
       0.88667595 0.11223114 -1.2756616 -0.32640943
000250 f7 56 76 bf 86 4f 18 bf 66 9a 13 c0 21 37 14 3e
       -0.9622645 -0.59496343 -2.3062987 0.14474155
000260 f6 81 68 3f 9d 94 a0 3f 4d ab 68 3e 9a e9 6f bd
       0.90823305 1.2545353 0.22721596 -0.05857239
000270 ad da 17 3e ca 19 d4 3e 68 59 be 3f ef 4f b2 3f
       0.14829512 0.41425925 1.4871035 1.3930644
000280 dd 88 aa bf ee 12 61 c0 07 9c 0b c0 15 b1 12 40
       -1.3323017 -3.5167804 -2.1813982 2.2920582
000290 d7 d3 f0 bf 9f 75 6d bd 9c fd 01 3f 26 eb 14 bf
       -1.8814648 -0.0579735 0.507776 -0.5817131
0002a0 41 73 92 be 54 39 c5 bd bc 7d 2e 3e 76 3e 1a bd
       -0.28603557 -0.09630075 0.17040151 -0.037657224
0002b0 22 6b 08 c0 bb 41 61 bf 5a e0 de be 7e 1c 89 3e
       -2.1315389 -0.8799092 -0.43530542 0.2677955
0002c0 64 55 24 3e 45 2d 37 3f 96 98 94 bc 60 43 70 3c
       0.16048199 0.7155345 -0.018139165 0.014664501
0002d0 db 31 6c bf 79 1e 8d 3c 58 c5 70 bf 6a 32 44 3e
       -0.92263573 0.017226445 -0.9405112 0.19159856
0002e0 84 ef ca be e9 44 1b 3e 57 86 cd be a6 32 90 3e
       -0.3963586 0.15163006 -0.40141556 0.28163642
0002f0 dc f5 93 3f 3c ee 66 c0 c9 13 59 bf 08 3c 28 3f
       1.1559405 -3.6082907 -0.84795815 0.657166
000300 1d a3 25 3e 25 40 82 3f f6 95 49 3d 4a 78 6d bf
       0.16175504 1.0175825 0.04921528 -0.9276167
000310 00 bb 90 be 59 20 d1 be 33 f0 8a 3f 0e ab 51 3f
       -0.2826767 -0.40844992 1.0854553 0.81901634
000320 ee dc 39 3b d2 c8 c8 be 34 d6 7e bf 4e 9d 41 be
       0.0028360444 -0.39215714 -0.995456 -0.18907663
000330 47 8c f6 3f f4 10 3d 3f 45 d7 ff bf 00 5f d5 3e
       1.9261559 0.73853993 -1.998757 0.41674042
000340 2b 49 46 3f 8a e0 17 3e 6d b3 1f 3e 95 9e d9 bf
       0.77455395 0.14831749 0.15595789 -1.700152
000350 f4 5d ea be 92 8d fc 3f 14 cd 2d bf 20 f0 cb 3e
       -0.45774806 1.9730704 -0.6789105 0.39831638
000360 ba 54 11 c0 f2 45 04 bf 63 c4 ca bd 6b 63 74 3e
       -2.2707963 -0.5166923 -0.09900739 0.2386605
000370 47 eb ee 3f 62 20 9a bd 19 9c 1d 3f d6 90 00 3f
       1.8665551 -0.07525708 0.6156631 0.50221
000380 d2 ab 1d bf 85 ba 19 c0 7e ca 3a be af 06 ef 3d
       -0.615903 -2.4020092 -0.18241307 0.11671197
000390 f1 af 85 bf 37 70 c9 3e 84 d5 81 bf 2f 5a 0f 40
       -1.0444318 0.39343426 -1.0143285 2.2398794
0003a0 6a 2f e3 3e 94 82 b7 3e 5b d4 cb 3d 10 b2 8d 3f
       0.44372112 0.3584181 0.09952613 1.1069965
0003b0 4e ab 10 be c8 f4 0c 3e a2 7c 80 bf fe 56 40 3f
       -0.14127848 0.13765252 -1.0038035 0.7513274
0003c0 54 72 48 3e 9b d2 ef bf ec 47 ad bf 1f e3 95 3d
       0.19574863 -1.8736147 -1.3537574 0.073187105
0003d0 27 85 9b bf 9b 80 9c 3f ff bb b3 3f 0d df 5e 3f
       -1.215001 1.2226747 1.4041747 0.870591
0003e0 41 aa 56 3f 7b 7f 93 3f ec a0 5f 3f cf be 53 be
       0.83853537 1.1523279 0.8735492 -0.20678256
0003f0 cc e3 9b 3e 58 67 37 3f 6e 4c 3a bc 4d 1f 45 3f
       0.30447233 0.71642065 -0.011370761 0.77000886

arith.constant18 f4 [40, 10]
000000 9a 24 32 3e e9 96 a5 bf 9e 73 52 3f c3 6a 81 40
       0.17396775 -1.2936679 0.8220767 4.0442824
000010 89 f8 f9 3e 93 10 18 40 16 f5 9e be 6b 67 37 bf
       0.4882243 2.3760116 -0.3104636 -0.7164218
000020 c9 97 70 c0 50 a0 f8 bd fe 66 cc c0 4e 8a c1 3f
       -3.7592642 -0.12139952 -6.3875723 1.5120332
000030 fa 1f 2d 40 f9 b1 39 bf bf 35 d8 40 2f 26 9e c0
       2.7050767 -0.7253719 6.756561 -4.942161
000040 a1 03 34 40 e0 ea 1c 3e e1 00 ec bf 02 58 1e c0
       2.8127215 0.15323973 -1.8437768 -2.4741216
000050 0a 95 8e bf 44 c0 ba bf 4c 5f 50 bd c1 b6 70 40
       -1.1139233 -1.4589925 -0.050872132 3.7611544
000060 0d de c7 3f 51 98 a0 bf 71 9c e6 40 27 18 a4 be
       1.561464 -1.2546483 7.206597 -0.32049677
000070 d1 91 e5 be 99 51 02 3f 69 2c 56 bf db af f3 3e
       -0.44837812 0.5090576 -0.83661515 0.47595105
000080 2c 66 82 bd f6 3c 62 3f 97 50 3d be 22 9d 8a 3c
       -0.06367144 0.8837427 -0.18487774 0.01692063
000090 8d fe e2 3e 00 fc ba 3e 58 a6 02 bf 57 75 e0 be
       0.44334832 0.36520386 -0.5103507 -0.43839523
0000a0 b2 de 35 c0 19 ae 4d 3f 83 28 0f bd c6 89 fa be
       -2.8417172 0.80343777 -0.034950744 -0.48933238
0000b0 29 a1 2d bf 91 75 d0 3e c4 84 db bc 3a 5e bb 3f
       -0.67824036 0.40714696 -0.026796706 1.4638131
0000c0 0c 5e 66 c0 a3 39 81 3f 8c 1d 2e c0 55 94 f3 bf
       -3.5994902 1.0095714 -2.7205534 -1.9029642
0000d0 0b ae 88 be 6b f9 03 c0 00 d1 43 3f 64 9a 10 3f
       -0.26695284 -2.0620983 0.76490784 0.5648558
0000e0 84 cf 40 c0 5d 13 f9 be 07 d1 57 c0 ee f5 25 bf
       -3.0126657 -0.48647586 -3.372133 -0.64828384
0000f0 eb 65 88 3f 8a e3 ae bf 65 8e 40 bf b5 b7 1c bf
       1.0656103 -1.366319 -0.75217277 -0.61217815
000100 dd 2d 68 3e cf 22 72 c0 fe 1e 25 3f ae e2 91 3e
       0.22673745 -3.7833745 0.64500415 0.28493255
000110 91 e6 f0 3d f3 47 32 c0 37 30 95 3f 60 79 92 3e
       0.11762727 -2.7856414 1.1655339 0.28608227
000120 5e 88 f7 bd a7 13 4f 40 3e ad 76 3f 42 07 af 3f
       -0.12086557 3.2355745 0.96358097 1.367409
000130 41 8d cd bf 97 16 d0 bf 05 29 80 bf 20 58 c7 be
       -1.6058732 -1.6256894 -1.0012518 -0.38934422
000140 8e 71 d2 3f 15 1a 7e 3f f2 fb da be cb e3 33 40
       1.6440904 0.9925855 -0.42770344 2.8107784
000150 ec d4 d9 3e 6f 80 8d 40 24 d4 bd 3d a2 69 de bf
       0.4254526 4.421928 0.09268978 -1.7375987
000160 ac 10 53 c0 c0 44 9f 3f 1c c7 ec 3f bf 32 c9 bf
       -3.2978926 1.2442856 1.8498263 -1.5718611
000170 42 04 5b bf 2a b7 2c 3e 2c a7 65 40 de 30 66 bf
       -0.8555337 0.16866747 3.5883284 -0.89918315
000180 1c 93 a6 bf 12 97 ed bf 7e 6f db 3f bd b3 a8 c0
       -1.3013644 -1.8561728 1.71434 -5.2719407
000190 f2 6e d5 3f 3e 72 8f 3e f2 9d 54 3f a4 5d 89 bf
       1.6674483 0.28016847 0.83053505 -1.0731702
0001a0 2e 35 32 3f ec 4d 5f 3e 9a 44 e1 bd 9a 26 8e bf
       0.69612396 0.21807069 -0.10999413 -1.110553
0001b0 72 87 33 c0 59 ed 1f c1 d7 12 0d 3f 08 a6 a1 c0
       -2.805142 -9.995446 0.5510687 -5.0515175
0001c0 38 2f 87 40 4a 44 00 c0 a0 51 ee 3e 7d 67 87 bf
       4.224514 -2.004168 0.4654665 -1.0578457
0001d0 8f 01 45 3f 7b 1b a3 3f 25 15 61 3e 18 3f ba 3f
       0.76955503 1.2742761 0.21980722 1.4550505
0001e0 fe fe b4 bf be 7f 98 3d 16 81 a8 3f 54 b1 b8 3f
       -1.4140317 0.0744624 1.3164394 1.4429116
0001f0 67 dd 06 bf 1a 8c 79 be 81 4e 35 bf fb 6f 89 c0
       -0.52681583 -0.24369851 -0.7082291 -4.2949195
000200 ee 3e 46 3f 01 20 26 c0 e6 de 46 c0 46 e0 34 40
       0.77439773 -2.5957034 -3.1073546 2.8261886
000210 92 c3 97 3d 60 2e 25 c0 48 6a 00 40 7d cc 0e 40
       0.07410349 -2.5809555 2.006487 2.231231
000220 2f fd 87 bf da 5b 81 c0 c5 9c 41 c1 14 8f 14 be
       -1.062414 -4.0424623 -12.100774 -0.14507705
000230 f1 df 4b 3e 92 4d 24 3f d4 b0 9c bf b9 32 f7 3e
       0.19909646 0.6418086 -1.2241464 0.48280886
000240 dc 70 8c bf 77 6f ca 3f 17 83 6d 3d df cc 28 3f
       -1.0971942 1.5815266 0.057986345 0.6593761
000250 ad f6 b6 3f bf 72 fe 3f 96 0d aa 3d 8e 6a 82 3f
       1.429403 1.9878768 0.083033726 1.0188768
000260 3f 3c eb 3c 10 54 a9 3f 9a 5e 36 3d 7d da 4b 3e
       0.028715251 1.3228779 0.044523813 0.19907565
000270 ea fc cc bf 01 78 8f 3f 8f e4 0c c0 7e 67 25 bf
       -1.6014683 1.1208497 -2.20145 -0.6461104
000280 d4 97 06 3f 3a 6f 1c 3f 10 52 85 bf 89 77 65 c0
       0.5257542 0.6110722 -1.0415668 -3.5854208
000290 1c a9 d5 3e ee 84 52 3f 81 56 9a bf b3 db 18 3f
       0.41730583 0.82234085 -1.2057649 0.59710234
0002a0 74 6d 7e be bd 32 f6 3f f3 89 2f c1 77 a0 e2 3f
       -0.2484644 1.9234234 -10.971179 1.770522
0002b0 96 6c 48 bf be 5e 18 41 eb bb 49 bf f9 5d 1a 40
       -0.7829069 9.52313 -0.78802365 2.4119856
0002c0 e0 2b 56 40 26 55 b0 3f 9c 90 85 3f 64 4d 4d 3f
       3.346428 1.3775985 1.0434756 0.80196214
0002d0 82 10 09 c0 80 ae 37 bf 5d 6c c7 3f a4 e0 ae 40
       -2.1416326 -0.7175064 1.5579945 5.464922
0002e0 91 ca 67 3f f6 5e 78 c0 00 37 05 40 ec 4d 16 bf
       0.90543467 -3.880796 2.081482 -0.5871265
0002f0 42 37 fa be 70 92 cd 3e 71 a9 d6 bd 71 cc ee bf
       -0.48870283 0.40150785 -0.10481537 -1.865614
000300 d4 47 19 40 a3 32 89 3f ca 98 74 be 71 ba 7a bf
       2.395009 1.0718578 -0.2388641 -0.97940737
000310 a4 21 1b bf 24 94 84 3f 3c 02 e6 3e cc 24 cb bf
       -0.60598207 1.0357709 0.4492358 -1.5870605
000320 d9 f8 bb 40 84 0e f5 bf be 7a d8 c0 53 60 cb c0
       5.874127 -1.9145055 -6.764983 -6.3555083
000330 d9 6c a4 3f a5 b3 6a c0 73 d7 c5 bf c6 57 47 be
       1.2845718 -3.6672146 -1.5456375 -0.19467077
000340 e8 65 51 40 0a 3f cb c0 92 ef b1 40 e3 7d e0 bf
       3.2718449 -6.351445 5.5604944 -1.7538418
000350 2f c9 1a be ce 3c 43 3e af 97 af 3e 6a 63 de bf
       -0.15115808 0.19066164 0.34295413 -1.7374089
000360 23 2f 5e c0 ef 66 68 c0 88 4a ff be 36 c8 18 3f
       -3.471627 -3.6312826 -0.4986155 0.596805
000370 bd a5 b6 bf 67 54 a8 be 18 43 38 bf 7e 27 1b bf
       -1.4269329 -0.32876894 -0.71977377 -0.60607135
000380 26 be 0b 3f c8 5e ba bf e0 9e 76 3e 5b 34 b4 3f
       0.5458702 -1.4560175 0.24084044 1.4078478
000390 19 93 a1 3f a1 d2 b7 3e d3 26 ee c0 66 3b e9 bf
       1.2623016 0.35902885 -7.4422393 -1.8221252
0003a0 3f 0e 82 c0 76 e3 80 c0 da 35 28 c0 9a 6b 3a 40
       -4.064239 -4.027766 -2.6282868 2.9128175
0003b0 aa 82 bf 3f 5e 1f be 3f 7d 93 84 40 58 c7 75 3f
       1.496175 1.4853323 4.143004 0.960073
0003c0 63 68 a6 3e 48 69 f2 3f 6a bb 66 bf 17 f8 00 bf
       0.32501516 1.8938379 -0.9012972 -0.50378555
0003d0 a1 21 8d bf 40 2e 93 3f ec ab 15 3e ce 3b eb be
       -1.1025888 1.1498489 0.14616364 -0.45944065
0003e0 eb 47 94 3e 6c 69 1d 40 da 9d fd 3f 61 0c d7 be
       0.2896112 2.4595594 1.9813797 -0.42001632
0003f0 1d 7b 0a 3f 6b 1c a7 3f da be 2a c0 07 25 23 c0
       0.54094106 1.3055547 -2.6678987 -2.549135

sequential_1/lstm_1/while/lstm_cell/BiasAdd/ReadVariableOp f4 [40]
000000 74 40 04 c1 8b 7e 36 c0 87 5a b6 40 7f b5 b8 3f
       -8.265736 -2.8514736 5.6985507 1.4430388
000010 0b 0a 68 bf c3 96 9a 3f ee 59 5b 3e 84 d5 d1 3f
       -0.90640324 1.2077259 0.21421024 1.6393285
000020 de 4a 95 3f 1b 80 e8 3e b9 c7 99 3f e2 70 ed 3f
       1.1663473 0.45410237 1.2014076 1.8550074
000030 55 86 9d 3f 5f 46 da c0 45 0d a4 3f 7a ee 92 40
       1.230662 -6.82109 1.281655 4.591611
000040 9e ac 8f 40 07 8c 99 40 9c a1 7c 3e 51 01 b5 3f
       4.4898214 4.798343 0.24671024 1.4141027
000050 1b dc dd c0 1e c5 b9 3f 8c 23 89 40 d8 c4 80 c1
       -6.9331183 1.451328 4.285589 -16.096115
000060 40 40 92 40 f0 e6 a8 c0 72 89 91 bf 43 40 a1 bd
       4.570343 -5.2781906 -1.137007 -0.07873585
000070 a4 0c eb c0 72 b1 9a 3f 5c b9 01 40 2c d4 de 3b
       -7.345293 1.2085402 2.0269384 0.006800195
000080 83 c5 7d 3f 75 36 c9 c0 2e 83 33 3f 40 a1 9b 3f
       0.99129504 -6.2878976 0.7012204 1.2158585
000090 cf f9 84 c0 a7 63 14 40 3e e1 05 41 0d 5f 1e 40
       -4.155494 2.3185823 8.367491 2.4745514
