thermal/vt_prediction_lstm_model_tokay.tflite (tflite, 15751 bytes, 12 tensors)

arith.constant5 f4 [6, 10]
000000 3d f8 6d 3e ca bf 3e 3f ba 19 19 bf f0 e0 06 bf
       0.23239227 0.74511397 -0.5980488 -0.5268698
000010 c8 9e 3e 3c 0a be 57 3e 26 c3 22 bf ee f6 e9 3d
       0.011634536 0.21068588 -0.6357902 0.11424051
000020 83 00 27 3f 53 ba b6 3e 0d 23 89 3e 5a 43 3e 3f
       0.65235156 0.3568903 0.26784554 0.7432152
000030 4d f4 16 bf 61 08 f0 be 63 49 fa 3b 77 36 91 3e
       -0.58966523 -0.46881393 0.007638143 0.28361866
000040 31 03 19 bf ae 07 64 3d 13 34 13 3f bc e4 c1 3e
       -0.59770495 0.055671386 0.57501334 0.37869823
000050 06 3b 9b 3e e5 f4 42 3f 5c 7e 17 bf 2b 40 c1 be
       0.3031847 0.7615493 -0.59177184 -0.3774427
000060 e6 50 bc 3a 25 18 c5 3e 48 1c 13 bf 13 c2 55 bc
       0.0014367371 0.38494983 -0.5746503 -0.013046759
000070 af da 02 3f 9b 5f c0 3e 96 cb ab 3e 4f 1c 47 3f
       0.51114935 0.3757294 0.3355376 0.7777757
000080 ed cf 18 bf 6a c7 8e be 1c 52 d5 bb 57 e6 f9 3e
       -0.5969227 -0.27886516 -0.0065100323 0.48808548
000090 a2 43 12 bf cd 2a 90 bd ec 6d e8 3e bb fa c6 3e
       -0.5713445 -0.070394136 0.45396364 0.38863167
0000a0 a0 20 bb 3e a7 fe 48 3f dc 86 14 bf d4 87 7d be
       0.36548328 0.7851357 -0.5801828 -0.24758846
0000b0 91 fe 93 bc 1b 97 08 3f 11 05 04 bf 23 7a 02 be
       -0.018065723 0.5335557 -0.5157023 -0.12741904
0000c0 02 9c c6 3e 0c 9f c9 3e 10 40 c7 3e 58 aa 4a 3f
       0.387909 0.39379156 0.38916063 0.79166174
0000d0 25 1b 11 bf 6d a9 5d be 6a da 1a bd 3a cf 15 3f
       -0.56682044 -0.21646662 -0.037805952 0.5851933
0000e0 03 99 f5 be 46 ca 2d be 5a cd ad 3e 6c d4 ca 3e
       -0.479683 -0.16971692 0.33945733 0.3961519

arith.constant6 f4 [10, 10]
000000 2f 71 11 bf ed 29 c5 3d 80 ef 4f c0 a4 4d 03 42
       -0.5681333 0.09627137 -3.248993 32.82582
000010 60 0e 0c 3e cb c0 f3 3e 5c 8b 9d 40 02 14 d2 c1
       0.13677359 0.47608027 4.9232616 -26.25977
000020 7e d4 92 bf 5b 27 8e 3d 44 62 61 bf b3 fb 58 bf
       -1.1471097 0.069411 -0.88040566 -0.8475906
000030 47 33 72 be b3 ab 03 40 bd ab 94 bf 30 30 fb be
       -0.23652373 2.0573547 -1.161491 -0.49060202
000040 c3 a7 cc bf c4 b3 e1 c0 a5 db 8f bf 55 3d 3e c0
       -1.5988697 -7.053194 -1.1238905 -2.9724934
000050 14 07 24 3f cf 55 9a 3e 95 05 8a 3f 05 78 8b c0
       0.640733 0.30143592 1.0782954 -4.358401
000060 3d 07 7d 3f 89 bd e4 be 9c a3 08 bd 42 d2 72 41
       0.9883917 -0.44675854 -0.033359155 15.176332
000070 54 e8 b9 bf 2a cd 71 3f 0f dd 83 c0 52 a4 8d 3e
       -1.4524026 0.9445368 -4.1207347 0.2766443
000080 d2 3c 0b 40 66 45 77 40 d4 94 d0 3e 14 47 f5 bf
       2.1755872 3.8636107 0.40738547 -1.9162316
000090 5c 5d 16 40 6d 6d 22 c2 e1 6e 70 3d 25 27 43 41
       2.3494482 -40.60686 0.058699492 12.197057
0000a0 f0 06 96 bd 3d 89 9c 3f a7 f4 32 40 70 ae a6 41
       -0.07325542 1.2229382 2.7961824 20.835175
0000b0 a6 ba 7f bf c6 84 10 bf 34 cb 68 40 21 2f aa c1
       -0.9989418 -0.56452596 3.6374025 -21.273012
0000c0 6f a5 24 3e 63 4f 01 41 97 97 85 3c 6f d5 0d 40
       0.16078733 8.0818815 0.016307635 2.216152
0000d0 0c c5 5d bf 6e b4 64 40 25 92 49 40 d9 07 93 3e
       -0.86628795 3.5735126 3.149545 0.28716925
0000e0 a0 8c 32 c0 97 f2 9e 41 21 30 01 c0 ca 49 a6 c0
       -2.789833 19.868452 -2.0185626 -5.1965075
0000f0 29 cd dd c0 17 2f 19 40 51 d2 34 bf c0 08 d3 40
       -6.931294 2.3934991 -0.7063342 6.594818
000100 f1 53 e2 3f 2e af 3d bf 67 c3 fa bd 69 51 0f c1
       1.7681867 -0.7409543 -0.12244301 -8.957376
000110 04 cf 80 3f 57 92 1d 40 ae b9 0d c1 5a 48 f2 3f
       1.0063176 2.4620569 -8.857832 1.892833
000120 34 a3 d6 be 5a ab fc 3f 77 9d 04 c0 eb b8 3a c0
       -0.4192139 1.9739792 -2.072111 -2.9175365
000130 52 41 83 c0 2c 03 b3 40 d4 4c 18 c0 d5 3a 55 40
       -4.1017237 5.594137 -2.3796892 3.3317158
000140 27 34 79 bf c1 8a 89 3f 32 ef 24 bf ae aa 8e 40
       -0.97345203 1.0745469 -0.64427483 4.458335
000150 e3 80 a0 3e 28 ef 00 40 5f 29 fb 3f 5c 7e ff c0
       0.31348333 2.014597 1.9622 -7.9841747
000160 9a a7 3d bf 05 7c cd 3f 2f e5 d2 be e3 4d 96 be
       -0.74083865 1.6053473 -0.41190478 -0.29356298
000170 03 12 ed be 1e 68 2e 41 58 6f 03 3f 93 82 91 3f
       -0.46302804 10.900419 0.5134177 1.1367973
000180 bd e5 62 40 40 a2 74 c1 34 56 5f bf 7b d4 52 40
       3.545272 -15.289612 -0.8724091 3.2942188

arith.constant7 f4 [88]
000000 27 90 48 3b 27 90 48 3b 27 90 48 3b 27 90 48 3b
       0.00306035 0.00306035 0.00306035 0.00306035
000010 27 90 48 3b 27 90 48 3b 27 90 48 3b 27 90 48 3b
       0.00306035 0.00306035 0.00306035 0.00306035
000020 27 90 48 3b 27 90 48 3b 27 90 48 3b b1 aa 2f 3b
       0.00306035 0.00306035 0.00306035 0.002680462
000030 b1 aa 2f 3b b1 aa 2f 3b b1 aa 2f 3b b1 aa 2f 3b
       0.002680462 0.002680462 0.002680462 0.002680462
000040 b1 aa 2f 3b b1 aa 2f 3b b1 aa 2f 3b b1 aa 2f 3b
       0.002680462 0.002680462 0.002680462 0.002680462
000050 b1 aa 2f 3b b1 aa 2f 3b 1c 4b 48 3b 1c 4b 48 3b
       0.002680462 0.002680462 0.0030562347 0.0030562347
000060 1c 4b 48 3b 1c 4b 48 3b 1c 4b 48 3b 1c 4b 48 3b
       0.0030562347 0.0030562347 0.0030562347 0.0030562347
000070 1c 4b 48 3b 1c 4b 48 3b 1c 4b 48 3b 1c 4b 48 3b
       0.0030562347 0.0030562347 0.0030562347 0.0030562347
000080 1c 4b 48 3b af 5f b3 3b af 5f b3 3b af 5f b3 3b
       0.0030562347 0.005474053 0.005474053 0.005474053
000090 af 5f b3 3b af 5f b3 3b af 5f b3 3b af 5f b3 3b
       0.005474053 0.005474053 0.005474053 0.005474053
0000a0 af 5f b3 3b af 5f b3 3b af 5f b3 3b af 5f b3 3b
       0.005474053 0.005474053 0.005474053 0.005474053
0000b0 08 81 5c 3b 08 81 5c 3b 08 81 5c 3b 08 81 5c 3b
       0.0033646245 0.0033646245 0.0033646245 0.0033646245
0000c0 08 81 5c 3b 08 81 5c 3b 08 81 5c 3b 08 81 5c 3b
       0.0033646245 0.0033646245 0.0033646245 0.0033646245
0000d0 08 81 5c 3b 08 81 5c 3b 08 81 5c 3b d9 ee b2 3b
       0.0033646245 0.0033646245 0.0033646245 0.0054606018
0000e0 d9 ee b2 3b d9 ee b2 3b d9 ee b2 3b d9 ee b2 3b
       0.0054606018 0.0054606018 0.0054606018 0.0054606018
0000f0 d9 ee b2 3b d9 ee b2 3b d9 ee b2 3b d9 ee b2 3b
       0.0054606018 0.0054606018 0.0054606018 0.0054606018
000100 d9 ee b2 3b d9 ee b2 3b 56 e9 3b 3b 56 e9 3b 3b
       0.0054606018 0.0054606018 0.0028673015 0.0028673015
000110 56 e9 3b 3b 56 e9 3b 3b 56 e9 3b 3b 56 e9 3b 3b
       0.0028673015 0.0028673015 0.0028673015 0.0028673015
000120 56 e9 3b 3b 56 e9 3b 3b 56 e9 3b 3b 56 e9 3b 3b
       0.0028673015 0.0028673015 0.0028673015 0.0028673015
000130 56 e9 3b 3b 52 10 b4 3b 52 10 b4 3b 52 10 b4 3b
       0.0028673015 0.0054951096 0.0054951096 0.0054951096
000140 52 10 b4 3b 52 10 b4 3b 52 10 b4 3b 52 10 b4 3b
       0.0054951096 0.0054951096 0.0054951096 0.0054951096
000150 52 10 b4 3b 52 10 b4 3b 52 10 b4 3b 52 10 b4 3b
       0.0054951096 0.0054951096 0.0054951096 0.0054951096

arith.constant8 f4 [6]
000000 25 dd 16 c0 5e 8e db bf 30 4c 8b bf 0b 3e fc be
       -2.3572476 -1.7152822 -1.0882626 -0.49266085
000010 40 9a d9 3d 5b b5 2f 3f
       0.10625124 0.686361

arith.constant9 f4 [10]
000000 a0 57 bc c0 71 12 fb 3f ad d0 a2 c0 32 c9 29 40
       -5.8856964 1.9615003 -5.087973 2.652905
000010 99 26 d2 be bd c6 30 c1 bf 72 cf bf 7d de a8 3f
       -0.41045073 -11.04852 -1.6206893 1.3192898
000020 ae 63 92 c0 00 5a 45 c0
       -4.574668 -3.0836182

arith.constant10 f4 [6]
000000 cd 70 be 46 cd 70 be 46 cd 70 be 46 cd 70 be 46
       24376.4 24376.4 24376.4 24376.4
000010 cd 70 be 46 cd 70 be 46
       24376.4 24376.4

arith.constant11 f4 [88]
000000 00 90 c4 46 00 90 c4 46 00 90 c4 46 00 90 c4 46
       25160.0 25160.0 25160.0 25160.0
000010 00 90 c4 46 00 90 c4 46 00 90 c4 46 00 90 c4 46
       25160.0 25160.0 25160.0 25160.0
000020 00 90 c4 46 00 90 c4 46 00 90 c4 46 00 48 c3 46
       25160.0 25160.0 25160.0 24996.0
000030 00 48 c3 46 00 48 c3 46 00 48 c3 46 00 48 c3 46
       24996.0 24996.0 24996.0 24996.0
000040 00 48 c3 46 00 48 c3 46 00 48 c3 46 00 48 c3 46
       24996.0 24996.0 24996.0 24996.0
000050 00 48 c3 46 00 48 c3 46 00 ea c2 46 00 ea c2 46
       24996.0 24996.0 24949.0 24949.0
000060 00 ea c2 46 00 ea c2 46 00 ea c2 46 00 ea c2 46
       24949.0 24949.0 24949.0 24949.0
000070 00 ea c2 46 00 ea c2 46 00 ea c2 46 00 ea c2 46
       24949.0 24949.0 24949.0 24949.0
000080 00 ea c2 46 00 c8 bb 46 00 c8 bb 46 00 c8 bb 46
       24949.0 24036.0 24036.0 24036.0
000090 00 c8 bb 46 00 c8 bb 46 00 c8 bb 46 00 c8 bb 46
       24036.0 24036.0 24036.0 24036.0
0000a0 00 c8 bb 46 00 c8 bb 46 00 c8 bb 46 00 c8 bb 46
       24036.0 24036.0 24036.0 24036.0
0000b0 00 5e c2 46 00 5e c2 46 00 5e c2 46 00 5e c2 46
       24879.0 24879.0 24879.0 24879.0
0000c0 00 5e c2 46 00 5e c2 46 00 5e c2 46 00 5e c2 46
       24879.0 24879.0 24879.0 24879.0
0000d0 00 5e c2 46 00 5e c2 46 00 5e c2 46 00 c8 bb 46
       24879.0 24879.0 24879.0 24036.0
0000e0 00 c8 bb 46 00 c8 bb 46 00 c8 bb 46 00 c8 bb 46
       24036.0 24036.0 24036.0 24036.0
0000f0 00 c8 bb 46 00 c8 bb 46 00 c8 bb 46 00 c8 bb 46
       24036.0 24036.0 24036.0 24036.0
000100 00 c8 bb 46 00 c8 bb 46 00 2e c2 46 00 2e c2 46
       24036.0 24036.0 24855.0 24855.0
000110 00 2e c2 46 00 2e c2 46 00 2e c2 46 00 2e c2 46
       24855.0 24855.0 24855.0 24855.0
000120 00 2e c2 46 00 2e c2 46 00 2e c2 46 00 2e c2 46
       24855.0 24855.0 24855.0 24855.0
000130 00 2e c2 46 00 54 bc 46 00 54 bc 46 00 54 bc 46
       24855.0 24106.0 24106.0 24106.0
000140 00 54 bc 46 00 54 bc 46 00 54 bc 46 00 54 bc 46
       24106.0 24106.0 24106.0 24106.0
000150 00 54 bc 46 00 54 bc 46 00 54 bc 46 00 54 bc 46
       24106.0 24106.0 24106.0 24106.0

arith.constant12 f4 [1, 10]
000000 00 00 00 00 00 00 00 00 00 00 00 00 00 00 00 00
       0.0 0.0 0.0 0.0
000010 00 00 00 00 00 00 00 00 00 00 00 00 00 00 00 00
       0.0 0.0 0.0 0.0
000020 00 00 00 00 00 00 00 00
       0.0 0.0

sequential_2/lstm_2/TensorArrayV2_1 f4 [1, 1, 10]
000000 00 00 00 00 00 00 00 00 00 00 00 00 00 00 00 00
       0.0 0.0 0.0 0.0
000010 00 00 00 00 00 00 00 00 00 00 00 00 00 00 00 00
       0.0 0.0 0.0 0.0
000020 00 00 00 00 00 00 00 00
       0.0 0.0

arith.constant17 f4 [40, 8]
000000 68 d9 e6 3e 7e 1f a3 3f 21 b2 98 3f 89 c3 b0 be
       0.45087743 1.2743986 1.1929361 -0.3452418
000010 79 92 e4 3e 3c e6 0a be 92 c7 06 3f 8c 2d 0c 3e
       0.44643 -0.1356439 0.5264827 0.1368925
000020 79 36 8e bf 90 7c 17 3e 42 8f a3 be 9b c3 c5 be
       -1.1110374 0.1479361 -0.31945235 -0.38625798
000030 4e 77 3a 3e 93 9e 17 bf 90 88 4f 3f 79 a9 30 3f
       0.18209574 -0.5922634 0.8106775 0.69008595
000040 2f 3f 89 bf c8 e7 81 bf 63 ef 20 3f c7 36 5d bf
       -1.0722407 -1.0148859 0.62865275 -0.8641171
000050 6a 99 04 c0 af 6c 83 be f0 f4 9f 3f c9 d1 45 3f
       -2.0718637 -0.25668857 1.2496624 0.7727323
000060 0c 89 5c 3e ab e6 73 3e 47 e3 78 bf f2 85 22 c0
       0.21536654 0.23818462 -0.972218 -2.5394254
000070 fe 63 3f be 18 dc f9 3f da fe 39 3f 95 18 01 40
       -0.18690488 1.9520292 0.726545 2.0171254
000080 e8 26 ef bd 3b 9b fd 3f e5 30 07 3f 61 97 b3 3d
       -0.11677343 1.9812998 0.5280898 0.087691076
000090 d4 3d 90 be 38 33 4c 3c 9a 8f ae 3f f0 b8 60 3f
       -0.2817217 0.012463383 1.3637574 0.8778219
0000a0 c9 34 2d 3f 38 4a 4b 3f bf d0 ed bf 71 1b ad bf
       0.6765867 0.79410124 -1.8579329 -1.3524
0000b0 c3 f4 9e bc 63 4f 11 3e 17 31 61 be 69 39 27 3f
       -0.01940382 0.1419044 -0.21991383 0.65321976
0000c0 ea 08 51 bf 01 42 12 be 58 d6 7b 3f 42 f4 bd 3f
       -0.81654227 -0.14282991 0.9837394 1.4840167
0000d0 4a 00 02 bf 90 5a 52 3f 3c e3 ef be 47 d8 a2 3e
       -0.5078169 0.8216944 -0.46853054 0.31805632
0000e0 52 37 02 3f 8a 0d 64 bf c5 24 02 3f 73 f8 f2 bf
       0.5086566 -0.8908316 0.50837356 -1.8982071
0000f0 9b cb 6c 3f 0b c7 c4 bd 73 ef 72 3f 13 d0 55 3f
       0.9249818 -0.09608277 0.9489662 0.8352062
000100 a3 28 f4 be c8 84 36 3f df 60 1a bf 29 02 1d c0
       -0.47687253 0.7129636 -0.60304064 -2.4532568
000110 d9 41 0b 3f a0 b6 c3 be fb cf 25 3f c5 2f b6 3e
       0.5439735 -0.3822527 0.6477048 0.3558332
000120 43 d4 37 3f ed 0f 6b 3f 16 40 be 3f a0 84 a2 3f
       0.7180826 0.91821176 1.4863307 1.2696724
000130 f2 ff 94 3f e1 7a 75 3f dd 89 be 3f 4b 62 09 3f
       1.1640608 0.95890623 1.4885823 0.5366561
000140 cd 44 09 3f 91 f9 2d bd 44 b8 3e bf 31 98 4c c0
       0.53620607 -0.042474333 -0.7449992 -3.196789
000150 a1 15 c3 be 4c 3e ff bf e2 6d 52 bf 56 fe 95 c0
       -0.3810244 -1.9940886 -0.8219892 -4.687297
000160 bc 18 0a bf d7 0e 9f bf e4 ae 6a be 26 d9 34 40
       -0.5394399 -1.2426404 -0.22918278 2.8257537
000170 67 cf b7 be 6b cc cb 3e c7 54 57 bf f7 f8 ae be
       -0.35900423 0.39804396 -0.84113735 -0.3417432
000180 bd e7 ab 3f e8 8b 03 bf 28 39 95 bf 0f 21 08 40
       1.3430096 -0.51385355 -1.1658068 2.1270177
000190 69 e5 e4 3f 3c c2 91 3f d7 c3 d4 be 6e e1 00 40
       1.788251 1.1387401 -0.41555664 2.0137591
0001a0 6e 4d 0f 40 7a a0 30 3f d6 9a 67 3f 9e 17 b8 3f
       2.239101 0.6899487 0.90470636 1.4382207
0001b0 cd a0 0e 40 fb 5e 34 40 2f 1a 9e 3f 99 ba 3e 40
       2.2285645 2.8182971 1.2351741 2.980139
0001c0 55 d6 8c bf e6 4f 54 3f 2a a9 1e c0 9e c5 b2 3e
       -1.1002909 0.82934415 -2.479075 0.34916395
0001d0 00 1c 80 3f 80 66 46 be c6 2b de bc 60 1f 40 3d
       1.0008545 -0.19375038 -0.027120482 0.04690492
0001e0 f1 57 d1 3f fb 55 a8 3f dd 0a b1 bd 89 75 47 3f
       1.6354963 1.3151239 -0.0864465 0.7791372
0001f0 dc 46 a6 3f bb 5c b5 be 08 9e 9a bf 52 de 54 be
       1.2990375 -0.3542231 -1.2079477 -0.20787933
000200 b1 f6 96 3e 8e 55 43 bf de fe 59 be e5 c6 e5 be
       0.29485086 -0.7630242 -0.2128863 -0.44878307
000210 06 db b3 be 49 a3 dc 3e f8 d3 c4 bf 88 62 80 3f
       -0.3512804 0.43093327 -1.5377188 1.0030069
000220 93 c4 01 bf 46 80 94 bf 8e d0 fb be 50 d9 68 3d
       -0.50690573 -1.1601646 -0.49182552 0.05684787
000230 b7 05 84 bf 2b 2e 6e bc d5 7a 17 bf a3 5c 8f be
       -1.0314244 -0.0145373745 -0.591718 -0.28000364
000240 9c 0d 41 bf 39 0d 6a bf cd f3 01 bf 63 b0 60 bf
       -0.7541139 -0.91426426 -0.50762635 -0.87769145
000250 91 59 aa bf d2 33 ef 3e 40 d8 ba be 55 32 df 3e
       -1.3308583 0.46719223 -0.3649311 0.43593088
000260 86 54 5f bf ca cc 3f bf 4c c5 be 3e 04 26 d9 bf
       -0.8723835 -0.7492186 0.372599 -1.6964726
000270 0f 2a 58 3f 61 54 0f 3e fa 1c 1c 3f e8 36 2b 3f
       0.84439176 0.13997032 0.60981715 0.66880655
000280 c0 cd 7e 3f e7 72 9a 3e 25 95 de 3e 7e 6b b9 3e
       0.995327 0.3016579 0.43473163 0.36214823
000290 9d bb 13 bf 6d c6 99 3e 8b 88 04 be c1 de 4c be
       -0.5770815 0.300342 -0.12942712 -0.20006849
0002a0 38 a7 d8 bf c4 33 c2 bd a6 25 a2 3f 0a 2c 81 3f
       -1.6926031 -0.0948253 1.2667739 1.0091565
0002b0 a4 61 83 bf f2 6f 0b 3f ae bc f1 3e 91 bc 5b c0
       -1.0264173 0.5446769 0.47214264 -3.4333842
0002c0 15 a2 6f bf 06 f9 aa 3f ad 34 ed bf 87 0a ce bf
       -0.9360669 1.3357246 -1.85317 -1.6096963
0002d0 d9 54 95 bf f8 a3 9f be 10 5b fd bf 90 81 0f 40
       -1.1666518 -0.31179786 -1.9793415 2.2422829
0002e0 f3 72 86 be 5b 4c b6 bf 58 46 84 3e c8 5c 23 3f
       -0.26259574 -1.4242052 0.25834918 0.6381345
0002f0 d9 bc 91 3f a6 ab 78 bd d1 16 b8 3f 7e 69 d9 bf
       1.1385757 -0.06071057 1.4381963 -1.6985319
000300 5c 6e fc 3e c9 dd df bf 0f 93 31 be bd 53 53 bf
       0.49302948 -1.7489558 -0.17341255 -0.8254965
000310 aa 48 78 bc 0b 44 00 3f 04 1f 8c bf 48 d0 3d c0
       -0.015154043 0.50103825 -1.0946965 -2.9658375
000320 b3 5b 3a 3f 4a 62 88 3e 97 08 4d bf 0b 27 62 bf
       0.7279617 0.2663749 -0.8009123 -0.88340825
000330 c5 d3 22 3f 2c 19 85 3e fb 2b 83 bf f9 a3 9e 3f
       0.63604385 0.25995767 -1.0247797 1.239379
000340 6d 7a ba be 14 a9 2d be 83 57 03 bf a0 a0 9a 3f
       -0.36421528 -0.1695903 -0.5130541 1.2080269
000350 77 18 f1 be a5 f6 d7 be 5e 2f a3 bf 12 91 bb be
       -0.47088978 -0.42180362 -1.274883 -0.36634117
000360 bd 05 7b 3f 3b 0e 23 be f4 e2 8d 3e 1c 2d ca 3c
       0.9805563 -0.15923397 0.27712214 0.024679713
000370 16 20 69 3e 4f 02 76 3f fe b5 f5 3f bf 7a a7 be
       0.22766146 0.9609727 1.9196165 -0.32710835
000380 7f f6 38 be fb 1f e4 bf 13 cc 5b bb 15 80 81 be
       -0.18062781 -1.782226 -0.0033538386 -0.2529303
000390 87 c1 cb 3f a6 aa d5 3d 04 85 36 bf 70 84 3f 3f
       1.5918435 0.10432939 -0.71296716 0.7481146
0003a0 7f 6a 91 be b3 a2 cb bf c0 d1 fd bd 5c 01 ea be
       -0.28401563 -1.5909027 -0.12393522 -0.45704162
0003b0 9d 99 4e 3f a6 45 85 3e 6a ab 46 3e c1 ee 47 3e
       0.80703145 0.260297 0.19401327 0.19524671
0003c0 e7 8b 83 bf b4 c8 a0 3e 54 cb 8b 3f 7e 4a 84 3f
       -1.027707 0.31403124 1.0921426 1.0335233
0003d0 ec 87 91 3f bc b9 ab be 94 07 f6 be cb 6e 9b bf
       1.1369605 -0.33540142 -0.48052657 -1.2143186
0003e0 8f 52 b1 bf f2 09 16 bf a4 ae ca 3e 17 f6 a4 3f
       -1.385332 -0.58608925 0.39586365 1.2887601
0003f0 f7 22 34 3f 38 fd 6d 3e db 58 a7 3f 7b 16 c8 3e
       0.7036585 0.23241127 1.3073992 0.3907965

arith.constant18 f4 [40, 10]
000000 55 c7 48 be 75 75 12 3e c9 18 8e c0 fb 05 31 40
       -0.19607289 0.14302619 -4.4405255 2.76599
000010 e4 cd 86 bf 46 f7 7a 3f 87 e7 5c bf 47 98 15 bf
       -1.0531583 0.9803356 -0.8629078 -0.5843548
000020 81 4c 0b c0 93 af 04 40 f7 a4 b9 3d 31 da 51 3f
       -2.1765444 2.0732162 0.09064668 0.8197356
000030 4b 3d 6f c0 5e cf 93 c0 f3 ca 9f c0 6f 86 64 3e
       -3.738116 -4.6190634 -4.993524 0.22316907
000040 7a 69 49 c0 9c 2c 91 40 35 94 20 40 c0 3d e2 3c
       -3.1470628 4.5366955 2.5090458 0.027617335
000050 d5 26 35 3f 92 1f 41 c0 09 1b 47 40 8c 98 f9 3f
       0.7076238 -3.017552 3.111025 1.9499679
000060 f6 dd 0b c0 20 4b 85 3e 80 ab dc 3d 88 c7 68 40
       -2.1854224 0.26033878 0.107748985 3.6371784
000070 78 ec 3c bf 8b 6f 49 3f 67 06 b1 be c4 07 b6 c0
       -0.7379832 0.78685826 -0.34575197 -5.688448
000080 b8 13 c0 3f f5 56 30 c1 7d a7 0e 41 81 ab 3f 40
       1.5006018 -11.02123 8.915891 2.9948428
000090 27 4c 1e c0 70 f2 15 41 8d 39 a9 bf da 8c 7f 3e
       -2.473398 9.371689 -1.3220688 0.24956074
0000a0 02 ae 4c 3f 06 dc 68 c0 82 e0 a7 be ce 96 a0 be
       0.79953015 -3.6384292 -0.32788473 -0.31365055
0000b0 dc 21 d0 bf 72 a8 84 bf 6c 79 24 40 89 b2 b3 40
       -1.6260333 -1.0363905 2.569911 5.615544
0000c0 9c c8 99 3e cb 97 85 bf eb fb 8e 40 b9 41 cc c0
       0.30035865 -1.0436949 4.4682517 -6.383023
0000d0 d2 e1 63 c0 74 38 89 c0 43 c9 bc be 4c 71 d3 3e
       -3.560658 -4.2881413 -0.368723 0.41297376
0000e0 da 2f e6 3f ed 34 88 c0 d5 16 7f c0 71 5a 58 c0
       1.7983353 -4.2564607 -3.9857686 -3.38052
0000f0 e2 02 af c0 93 f2 f4 40 12 e4 20 41 b6 b3 88 40
       -5.469102 7.654611 10.055681 4.2719374
000100 40 d1 a0 40 77 02 dd bf c7 4b 2d 3f 67 87 90 c0
       5.025543 -1.7266377 0.6769375 -4.5165286
000110 c7 ee 19 40 e1 0a 09 c0 22 b1 3a bf d4 73 a1 3e
       2.4051988 -2.141289 -0.72926533 0.31533682
000120 e6 e2 19 40 5d 61 a6 40 e6 16 06 3f 73 43 5f 3f
       2.4044738 5.199385 0.5237869 0.87212294
000130 de e6 09 c0 73 c8 98 c0 96 b1 4b 40 59 31 9f 40
       -2.154716 -4.774469 3.182714 4.974774
000140 3c c5 44 40 2f e5 6f c0 ff d9 ac c0 19 b5 9e 40
       3.0745382 -3.7483633 -5.401611 4.9596066
000150 ee d8 89 bf 37 1b f7 bf 08 2b 33 bf fa 18 29 41
       -1.0769327 -1.930518 -0.69987535 10.568598
000160 af d5 cb 3f c7 2d d0 c0 83 54 26 bf 67 87 ed bf
       1.5924586 -6.505588 -0.64972705 -1.8556947
000170 2d 19 eb 3d bd 99 89 3d 51 42 33 be 8a bd 01 3f
       0.11479411 0.067187764 -0.17505766 0.5067984
000180 95 3d 4b 3f 77 0f e3 bf 00 23 10 bf fd 60 bc 3e
       0.7939084 -1.7739094 -0.56303406 0.36792746
000190 96 d4 7d 3e 1d 4a 27 bf 98 99 48 be 1f 34 14 3e
       0.24788126 -0.6534746 -0.19589841 0.14473008
0001a0 f6 bb 6d 3f b9 3a de 3f 52 25 0d 40 76 a1 e8 bf
       0.9286493 1.7361671 2.2054029 -1.8174274
0001b0 15 49 ce be 68 4c be 3e dc d2 9f 3e c0 c6 c2 3f
       -0.40290132 0.37167668 0.3121556 1.5216904
0001c0 82 76 c9 bf e0 93 a7 c0 d4 54 8f 3f f7 a7 c6 bf
       -1.5739291 -5.236801 1.1197762 -1.5520009
0001d0 9b 11 a1 3f 8f 64 0a 3f 23 c6 09 bf aa ae c8 bd
       1.2583498 0.5405969 -0.5381796 -0.097989395
0001e0 72 70 a1 3f 62 38 c6 c0 c8 e5 cd bf 81 8f 01 40
       1.261244 -6.1943827 -1.6085749 2.0243838
0001f0 bd 95 3f c0 83 16 64 3f 0c 5a 12 c0 7a 62 21 3f
       -2.9935143 0.8909685 -2.286746 0.6304089
000200 7a db 84 3f a8 41 98 40 f3 c7 7b 3e 06 10 f8 3f
       1.0379479 4.7580147 0.24587993 1.937989
000210 1d 93 5a 40 79 27 20 41 d0 12 ea 3f 52 6a 20 40
       3.415229 10.009637 1.8286991 2.5064893
000220 c9 e3 81 bf 41 18 46 bd 4c a8 0c 3e b3 92 17 c0
       -1.014764 -0.048362974 0.13736075 -2.3683288
000230 f6 dd dd 3f f3 9c 9b 3f bd 8e 02 c0 90 94 d1 3f
       1.7333362 1.2157272 -2.039962 1.6373463
000240 9b 40 64 be 4e 3e 44 c0 be 35 ab 3f f9 46 92 40
       -0.2229027 -3.0663028 1.3375776 4.5711637
000250 c4 80 5a 3d c3 86 ee 3f 95 b7 37 bf 0c 73 55 40
       0.053345457 1.8634876 -0.717645 3.335147
000260 12 75 c3 bf 24 f1 fc c0 58 cd 82 bf 74 01 3c bf
       -1.5270102 -7.904436 -1.0218916 -0.7343972
000270 aa 94 02 c0 56 c5 df c0 6e 19 a6 bf ad 9e 1b 3f
       -2.0403237 -6.992839 -1.297651 0.60788995
000280 13 22 cf be 37 05 4f c0 9a d6 a3 40 07 52 32 c1
       -0.40455684 -3.2346933 5.1199465 -11.145026
000290 98 8e f5 3d ca 1f da be 05 23 35 c0 c7 c7 0f 41
       0.11990088 -0.42602378 -2.8302624 8.986274
0002a0 52 73 e3 3f 1e 5e 95 40 d3 85 b5 40 26 8c 8c bf
       1.7769568 4.667739 5.672586 -1.098027
0002b0 97 49 b1 bf 70 52 eb 3f e7 86 39 bf 0f e8 70 be
       -1.3850583 1.8384533 -0.7247147 -0.23526023
0002c0 f2 3c 7c bf 7a d4 56 c0 4e 57 e5 3f b1 44 72 3f
       -0.98530495 -3.3567185 1.7917268 0.94636065
0002d0 f3 f0 b5 be b4 d3 56 bf 5b d6 35 bf 5d fc 77 40
       -0.35535392 -0.83916783 -0.71030205 3.874778
0002e0 30 d5 fb 3f 9d 35 d7 bf 96 9b 71 bf 46 6b 43 c0
       1.9674435 -1.6813236 -0.9437803 -3.0534225
0002f0 d0 4d 05 41 17 18 76 c0 c2 4f 41 c0 45 58 64 bf
       8.331497 -3.8452203 -3.020493 -0.8919719
000300 2c 31 8c 40 81 0b 08 c0 c5 a8 54 bf 05 ad a6 bf
       4.3810024 -2.1257021 -0.8307002 -1.3021551
000310 34 e9 82 40 6c a1 eb 40 21 7d 89 bf e8 8f 38 3f
       4.090967 7.363455 -1.0741311 0.72094584
000320 1f 9d 21 bf c6 68 0c 40 37 44 8b 3f 92 a7 52 c0
       -0.6313037 2.1938949 1.0880193 -3.2914777
000330 5a dc db 3e 5f a6 fa 3e ec c3 d0 3e 6e 2b 80 c0
       0.42941552 0.48955056 0.40774477 -4.0053015
000340 ba 09 b4 bf 93 7e 51 40 c1 2d 02 3f ae 80 dc c0
       -1.4065468 3.2733505 0.50851065 -6.890708
000350 12 51 c2 3f 5b 46 43 3e a2 13 9a 40 b2 a0 38 c0
       1.5180991 0.19069807 4.8148966 -2.884808
000360 ed 6e 60 40 f3 2d 8c c0 38 c0 71 be ff 84 2e 40
       3.5067704 -4.380609 -0.23608482 2.7268674
000370 89 e6 54 be cc 70 97 40 a3 65 0a c0 74 a0 df 3f
       -0.20791067 4.732519 -2.1624534 1.7470841
000380 5d 21 22 c0 53 4e c4 3e 44 0e 8a c0 e4 af 6b c1
       -2.5332863 0.38341007 -4.3142414 -14.730442
000390 b0 a7 ac c0 4a f3 5d 40 d7 ba ba 3f 9a bb d6 c0
       -5.3954697 3.4679742 1.4588269 -6.7104006
0003a0 1e 20 87 3f 71 e1 ca 40 0a 96 99 bf d0 a6 87 3f
       1.0556676 6.3400197 -1.1998913 1.0597782
0003b0 6a 17 6d c1 c9 33 0a c1 14 cc f9 be 84 62 c4 bf
       -14.818216 -8.637643 -0.48788512 -1.5342565
0003c0 f2 9b 6b bf 4a 2f 94 bf a3 57 93 bf 55 13 ea c0
       -0.9203483 -1.1576931 -1.151112 -7.31486
0003d0 dd 3c f3 3e 96 6e 5c 40 e8 20 8e c0 be 9b 25 c1
       0.47507372 3.4442496 -4.441517 -10.350523
0003e0 f8 ee 75 40 eb 71 7e 3e 09 8d 00 bf 83 37 24 bf
       3.8427105 0.24848144 -0.502152 -0.64147204
0003f0 48 7c 43 40 3a 68 04 c1 b8 67 cf 3f b9 a2 84 bf
       3.0544605 -8.275446 1.6203527 -1.0362159

sequential_2/lstm_2/while/lstm_cell/BiasAdd/ReadVariableOp f4 [40]
000000 48 f8 9a 3e 85 03 34 40 f7 01 2e 40 fb c0 45 bf
       0.3026755 2.8127148 2.71887 -0.7724759
000010 fe ad 90 bf 93 b9 8c 3f 8c d8 78 40 6d 1e 0b bf
       -1.1303098 1.0994133 3.888217 -0.543433
000020 a0 40 c9 bf 2f f8 7d 40 4c 0b 2e 3f 52 52 c5 40
       -1.5722847 3.968273 0.6798599 6.166299
000030 61 d5 92 40 f8 38 7f c0 82 d1 ee bf 3c a4 51 bf
       4.588547 -3.987852 -1.8657687 -0.81891227
000040 41 09 2d 40 70 b4 10 3f 76 e4 5d 3e c3 8a 95 40
       2.7036898 0.56525326 0.21669182 4.6731887
000050 3a 88 8f c0 e7 ac 85 c0 07 68 82 c0 ee d8 c1 be
       -4.485379 -4.1773562 -4.0751987 -0.37860817
000060 3d 0f cd c0 41 34 11 40 55 01 42 40 6a b6 4b bf
       -6.40811 2.2688143 3.0313313 -0.79575217
000070 d0 d6 1e c1 e0 ae a3 40 3f db 6f 40 bb 49 52 40
       -9.927444 5.115097 3.7477567 3.2857502
000080 1f ff 56 40 6c b8 49 c0 39 87 6d 3f d6 b8 dc 3e
       3.3593214 -3.1518812 0.9278446 0.4310977
000090 5c b3 60 3e c1 8c cf 3f a2 88 0b 3f 76 d6 a0 3f
       0.2194342 1.621483 0.5450536 1.2565448
